models/contact_net_v1_clipped.pt (torch, 20355 bytes, 15 tensors)

fc0.weight f4 [10, 3]
000000 8b d8 19 3f 5e f7 d5 3e b6 a8 20 bd 96 a0 e6 3e
       0.60096043 0.4179029 -0.039223395 0.45044392
000010 98 98 72 be 95 f2 b5 3e b1 12 36 3e cb 66 a2 3e
       -0.23691022 0.35536638 0.17780568 0.3171905
000020 74 bb da be bc 0f 08 bd a4 6b bd 3e 9b cb 91 3d
       -0.4272114 -0.03321813 0.36996186 0.07118913
000030 6b 13 9f bf ac fc 3d 3c 74 44 30 3d 45 3f ee be
       -1.2427801 0.011595886 0.043034032 -0.46532646
000040 9e 50 47 be 71 60 f3 be 65 eb f6 bf 1e 6f 2a 3d
       -0.19464347 -0.47534516 -1.9290587 0.041609876
000050 73 9d 4a 3e 87 d1 21 3f f6 fe fd 3c 17 6a b3 3c
       0.19786625 0.6321034 0.031005364 0.021901174
000060 92 97 53 bf 23 9b 53 3e fb 04 68 3e 32 68 77 3f
       -0.8265315 0.20664649 0.2265815 0.96643364
000070 8f 8a b2 3d ba 44 3b 3f
       0.08717834 0.73151743

fc0.bias f4 [10]
000000 66 26 a0 bc 04 8d 56 bf 0e 9d 56 3e f6 3b c8 3e
       -0.01954956 -0.8380892 0.20958349 0.39108247
000010 cb 21 e2 3d 1b 9f 02 3d 19 8d 47 3e 9f 0f ab bf
       0.11041602 0.031890016 0.19487418 -1.3364142
000020 5f 1a c4 3e 38 3f a0 3d
       0.3830137 0.07824558

fc1.weight f4 [50, 10]
000000 57 e1 19 3e 0e 16 30 bf ef d4 68 be 9b b3 76 3e
       0.15027367 -0.6878365 -0.22737478 0.24091952
000010 e0 61 38 bf c8 09 5c be 52 80 a8 bf 15 de b8 bf
       -0.72024345 -0.21488106 -1.316416 -1.4442774
000020 b2 32 b6 bb cc ee c8 3d fa 0e 5b 3e bc 9b 6f be
       -0.0055602426 0.09811172 0.21392432 -0.23399252
000030 c0 6f de bb 23 71 74 be a8 90 2f 3d f4 ed 85 be
       -0.006788224 -0.23871283 0.042862564 -0.26158106
000040 80 95 4c bb c6 b7 15 be 8a 91 9c be 2a 79 a6 bd
       -0.0031217039 -0.14620885 -0.30579787 -0.08128579
000050 1c 65 5f be 31 ee 16 be 00 a3 9b bd 49 6d 36 be
       -0.21815914 -0.147393 -0.07599449 -0.17815126
000060 99 b4 36 be 41 5f 4e be d6 99 76 3e b0 ae f1 3c
       -0.1784233 -0.20153524 0.24082121 0.029502243
000070 ea 77 86 be 52 a0 10 be d5 7e 17 3d f4 bc d4 3e
       -0.26263362 -0.14123657 0.03698619 0.4155041
000080 bf b8 24 bf 33 e2 bd be d1 c0 43 be 2a a5 94 3e
       -0.643444 -0.3708664 -0.19116522 0.2903226
000090 33 e2 4d 3d 0d 11 d7 3e ca 3a 30 be a9 9a 85 3e
       0.05026455 0.42005196 -0.17209926 0.2609456
0000a0 d0 a6 5f be 84 eb 1e bc 6f 8b ab bd c2 03 9d 3d
       -0.21840978 -0.009699706 -0.08376204 0.07666732
0000b0 59 8c ad bd c3 86 84 bf f5 9f 41 3d 51 0a 39 3c
       -0.08474035 -1.0353626 0.047271688 0.0112939635
0000c0 18 12 06 3e a8 82 72 3e 50 df a8 3e a8 18 00 bf
       0.1309284 0.23682654 0.32982874 -0.5003762
0000d0 a7 e0 16 be a5 67 40 bd 57 c6 14 bf bc 1d 10 3e
       -0.14734136 -0.046973843 -0.5811514 0.14073843
0000e0 6f bd 39 bf 28 73 38 be 06 c8 88 be 17 c7 a2 3e
       -0.7255468 -0.18012679 -0.26715106 0.31792518
0000f0 d8 45 09 3d b3 5f 9f 3c cf ec 0a 3e cc 59 8a 3e
       0.033513874 0.019454813 0.13566898 0.27021635
000100 f1 4d 47 be d6 ee c7 be c3 6a 63 3e ad 73 d2 3d
       -0.19463326 -0.39049405 0.22208695 0.1027597
000110 6f 72 88 be 77 22 b3 be e9 39 2a be e5 54 78 3d
       -0.26649806 -0.34987232 -0.16623653 0.060627837
000120 fe e1 0a 3d aa 2b 7b 3e c3 5f 61 3e 89 90 d6 3e
       0.03390693 0.24528375 0.22009186 0.41907147
000130 6d 31 11 bd 30 ec d0 3d 8f e4 26 be a0 e9 59 3e
       -0.035447527 0.10201299 -0.16298126 0.21280527
000140 ea 7b b3 be d5 58 f6 be 8c db 61 3e 80 d1 c4 bb
       -0.35055476 -0.48114648 0.22056407 -0.0060064197
000150 8d 58 68 bd db 16 cf 3e 6e df 06 3e 6d 8c 4b 3e
       -0.056725074 0.40447125 0.13171169 0.19877787
000160 2c 11 d9 3e 94 a6 c7 bb 65 dc 98 be 20 25 73 3d
       0.42395914 -0.0060928557 -0.29855648 0.059361577
000170 89 36 77 bc 35 f7 b1 bd df cd 00 be 90 f3 d9 bd
       -0.015088686 -0.08689729 -0.12578534 -0.10642159
000180 3b f4 d3 3e a8 e3 04 3d 80 8d 01 3f a2 fd b5 bd
       0.4139727 0.032443672 0.50606537 -0.08886267
000190 f2 b5 30 3e ff cd 55 be 4a 8f b8 3d c9 78 85 3e
       0.17256907 -0.20879363 0.09011705 0.26068714
0001a0 c6 3b 13 3d 74 9c 70 be 4e 2e 21 3e 7e c1 25 bf
       0.035945676 -0.23497182 0.1574032 -0.6474837
0001b0 16 0b 9b 3d f5 49 84 be 12 0a 19 3d 2e 68 5b be
       0.07570474 -0.25837675 0.03736312 -0.2142646
0001c0 bb ab b1 3b 19 77 0a be b0 c0 61 3c be 85 9e 3e
       0.005422083 -0.13521995 0.01377885 0.30961412
0001d0 46 85 f0 bd 5f 77 a0 3e fe 61 43 be aa a0 5d be
       -0.1174417 0.31341073 -0.1908035 -0.2164332
0001e0 7f 14 ea 3d da 5d 96 bd e9 21 c5 3d 47 80 54 3e
       0.114296906 -0.073421195 0.096256085 0.20752059
0001f0 f9 0c ed 3d 66 5c 29 3d 2d e7 32 3c de 26 fb bd
       0.1157474 0.041347884 0.010919374 -0.12263273
000200 0a 43 bc be 6a 45 ed be bd c0 8e 3c 02 2c 47 bf
       -0.36769897 -0.4634202 0.01742589 -0.77801526
000210 76 95 3e bd 64 eb 86 3e 5b 09 c2 3e 93 19 a4 bd
       -0.046529256 0.26351464 0.37897763 -0.080126904
000220 bb c1 8a bd 93 e5 93 bf c6 67 3c bb cb 9a 53 be
       -0.067752324 -1.1554435 -0.0028748377 -0.20664518
000230 a6 5b ef 3d 1e ee 2d be ca 49 dc 3d b0 4f 16 bc
       0.116874024 -0.16985366 0.10756262 -0.009174272
000240 84 46 dc be c5 61 f1 3e 43 29 d6 3d 01 84 1b 3f
       -0.4302255 0.47144905 0.10457089 0.60748297
000250 9b fe 46 3e 69 2e 91 3e 00 c1 89 bb ca 2d 96 be
       0.19433062 0.2835572 -0.0042039156 -0.2933181
000260 02 96 91 bd 10 32 72 3d 98 0e 71 bd e0 a6 21 3c
       -0.0710869 0.059129775 -0.05885181 0.009866446
000270 a6 b5 69 be 70 2a 85 3c a4 c1 da bd b6 72 60 be
       -0.228232 0.016255587 -0.10681465 -0.21918759
000280 09 6e e9 bb 41 ae c0 bd 02 f7 75 bd 81 c9 71 3e
       -0.007123713 -0.09408236 -0.060050018 0.23612024
000290 f1 d1 d8 bc 7e 52 94 be 65 51 dd bd 68 5c 53 bf
       -0.026467295 -0.28969187 -0.108065404 -0.82562876
0002a0 5a 01 13 bd e2 27 96 bc 41 51 01 be 48 73 1a 3e
       -0.03588996 -0.018329564 -0.12628652 0.15083039
0002b0 45 79 2c 3e 3d 88 44 be d6 27 77 bd bb fe 39 be
       0.16843136 -0.19192596 -0.060340725 -0.18163578
0002c0 97 71 98 bd 96 12 47 3e 69 42 9c bc e8 87 9c be
       -0.074435405 0.19440684 -0.019074636 -0.30572438
0002d0 cb e0 70 3e c3 0f da bc 5a f7 65 3c 0a be f2 bd
       0.23523252 -0.026618844 0.014036024 -0.11852653
0002e0 c8 63 e8 3d 64 71 77 3d 92 2f 4f 3e 09 29 06 bc
       0.11347157 0.060410872 0.2023299 -0.0081884945
0002f0 60 69 89 3e 2e b5 21 3d b1 cd 95 be c5 a1 bf bd
       0.26838207 0.039479427 -0.29258493 -0.09357027
000300 c7 96 b9 bd 66 4d 25 3e 08 fc 28 3b 36 e9 14 bd
       -0.090619616 0.16142806 0.0025784988 -0.03635522
000310 e4 07 8a 3d 35 9c a0 be bf aa f3 3e cf 53 1c bf
       0.06739786 -0.31369177 0.47591206 -0.6106538
000320 96 52 9c be 7a 7d b9 3e bf 7d 1d bf 2a eb 81 bf
       -0.30531758 0.36228544 -0.6152 -1.0149891
000330 d9 56 3c be 07 6b 4d 3d 31 a5 cd 3e 8e 76 54 be
       -0.18392505 0.050150897 0.40165094 -0.2074835
000340 01 06 61 3e 67 f9 a8 be 54 45 57 be 10 32 ef be
       0.21974947 -0.3300278 -0.2102254 -0.46717882
000350 89 7f 96 3e c2 c0 14 3e 86 45 9e 3e 3a af a0 3e
       0.29394177 0.14526656 0.30912417 0.31383687
000360 da eb d2 3e 68 d0 6c 3e 1e 23 3e be 0e c9 fc be
       0.41195565 0.23126376 -0.18568084 -0.49372143
000370 0e cf a4 bc 66 40 77 be 68 dc ac 3e 35 eb 14 3e
       -0.020118263 -0.2414566 0.33761907 0.1454285
000380 2b 83 84 3e 71 d0 78 be af f3 49 be 58 88 ab be
       0.25881323 -0.24298264 -0.19721864 -0.3350246
000390 b2 3c de 3c 56 b8 18 be e0 18 92 3c ab 09 90 be
       0.027128551 -0.14914069 0.017834127 -0.28132376
0003a0 df 88 6a be 2a 8e 24 be 4c 9e d5 bd 80 59 85 bc
       -0.22903775 -0.16069856 -0.10430583 -0.016278028
0003b0 a9 4a 46 be 08 ec 0a bd d0 3d a2 3c 0a 99 69 be
       -0.19364418 -0.033916503 0.019804865 -0.22812286
0003c0 56 5b 65 3e c1 53 9a bd 36 d9 86 3d 19 e0 89 3e
       0.22398123 -0.07535506 0.065843984 0.26928785
0003d0 3f 54 bd 3d d4 55 fd 3e 6f f9 d6 3d 2f 8a 6c be
       0.09244584 0.49479544 0.104967944 -0.23099588
0003e0 5d 20 ea 3d 91 61 14 3e 7e 15 ec 3d 80 a1 dd be
       0.11431954 0.14490344 0.11527537 -0.43287277
0003f0 3c 7e 61 3e 0a 68 2e 3e bd 64 08 3d d0 02 3c bd
       0.22020811 0.17031875 0.033299197 -0.04590112

fc1.bias f4 [50]
000000 7b e1 0a 3e 02 e4 0d 3e 7c 26 08 be 52 bd a9 be
       0.13562576 0.1385651 -0.1329593 -0.33152252
000010 70 c5 82 be f8 cc 92 3e 20 e6 30 3d 80 bf a1 3e
       -0.25541258 0.28672004 0.043188214 0.31591415
000020 c0 18 88 3e ec 62 dd 3d bb 41 e2 bd 13 3c 81 3e
       0.26581383 0.108098835 -0.11047693 0.25241145
000030 66 76 b3 3d af 31 ce 3e 09 0b 88 be 81 0c 0e be
       0.08762817 0.4027228 -0.2657092 -0.13871957
000040 69 be 2f 3e b4 9d e6 bd a0 59 22 3e b1 32 9d 3e
       0.1716248 -0.11260548 0.15854502 0.30702737
000050 2b ac aa be 95 47 c4 3e 9d 9a a6 bd c8 c6 13 be
       -0.3333448 0.38335863 -0.08134959 -0.14431298
000060 e8 7e 34 3e 9a 08 33 3e 8b 0f af 3e f3 cd 5b 3e
       0.17626536 0.1748375 0.34191546 0.21465282
000070 a7 b3 c2 3e 9f 8b 91 3e b2 67 d1 3d 14 54 cd be
       0.3802769 0.28426835 0.102248564 -0.4010321
000080 c1 2e c4 bd 8e bb 5b be d1 c0 8d be d3 8b 03 be
       -0.0957923 -0.21458265 -0.2768617 -0.12846307
000090 74 1d 87 3e a0 50 25 be e6 66 a7 3e ff 63 8c bd
       0.26389658 -0.16144037 0.32695693 -0.0685501
0000a0 30 79 48 be 8e a1 28 3e 29 9e e7 bd dd 22 86 3e
       -0.1957748 0.16467878 -0.113094635 0.26198474
0000b0 07 5e 15 be 58 2f 6a 3e a5 38 41 be b8 56 14 bf
       -0.1458665 0.22869623 -0.18869264 -0.5794482
0000c0 ff 32 05 bf a3 0e d1 be
       -0.5203094 -0.4083148

fc2.weight f4 [50, 50]
000000 2c 1d 91 3d 01 5c 00 3e d0 f2 59 bd ba 30 7a 3d
       0.07085642 0.12535097 -0.05321008 0.061081626
000010 31 78 38 bd 51 49 9b 3c 7a da 88 bc f2 bc 11 bc
       -0.0450365 0.018955858 -0.01670574 -0.008895146
000020 68 5c 93 bd 41 58 b8 3d 21 e8 cb 3b 67 79 ae bd
       -0.071953595 0.09001208 0.0062227403 -0.085192494
000030 ee 0b 32 3e 5f 7b 0e 3e 3a 48 17 3e ea 67 05 bd
       0.17387363 0.1391425 0.14773646 -0.032569803
000040 60 5c ae 3e 66 0c 16 3e 3d 61 0e 3e ab 88 c1 3d
       0.34054852 0.14653167 0.13904281 0.094498955
000050 10 ba c1 3d 19 c2 88 bd 06 c1 98 bd a0 e7 48 bd
       0.09459317 -0.06677646 -0.07458691 -0.04904902
000060 d2 d2 2a 3d 46 50 0b 3e ac ca 8d 3d 56 95 42 3d
       0.04170496 0.1360484 0.06923422 0.0475057
000070 ba 1e 00 3e 54 70 38 bd 3e 22 95 3d 65 0d f1 3d
       0.12511721 -0.045029 0.07281922 0.11770133
000080 98 ea 28 be 1f 0a 28 bd 4a 32 bc 3c 78 34 1f be
       -0.1649574 -0.041025277 0.022973198 -0.15547359
000090 66 61 26 3e 5b 39 50 3d 5c 15 ee 3d e1 b1 03 3e
       0.16248092 0.05083595 0.11625168 0.12860824
0000a0 7d 98 02 3e d6 b5 e2 3c 57 ed 6f bc dc dd 1f 3e
       0.12753482 0.027674597 -0.014643989 0.15611976
0000b0 aa 2d b2 3c 81 90 2c bc 9e 4a ad bd 9e 21 66 bc
       0.02175029 -0.010532499 -0.08461498 -0.014046101
0000c0 69 30 be 3d 88 2c 96 3d 2c dd 5f 3f bd bb 07 3e
       0.09286577 0.073327124 0.87446856 0.1325521
0000d0 d4 4f 5a bd 27 40 48 bd c6 32 f5 bd 36 69 1d 3e
       -0.053298786 -0.048889305 -0.11972575 0.15372166
0000e0 1a a1 aa 3c 8d 98 97 3c 4a 16 7b 3d 8c a9 c3 3d
       0.020828772 0.018505359 0.061300553 0.09553823
0000f0 01 fe e2 3d cb 2f 0a 3e 69 ab 3a bd a1 3e 20 3c
       0.11083604 0.13494794 -0.045573626 0.009780557
000100 0e 26 73 bd 5e a5 ce bd 67 a3 8e 3e 51 36 02 3e
       -0.059362464 -0.10090135 0.2785904 0.12716033
000110 40 ff d6 3d 91 79 e5 3d 04 ac 89 3b 85 9c 74 bd
       0.10497904 0.112048276 0.004201414 -0.05971958
000120 69 57 e3 bd 58 9a 16 bd 64 38 07 bd 6b f3 b3 bd
       -0.111006565 -0.036768287 -0.033012763 -0.08786663
000130 3e 60 80 3d 9e 18 be bd 58 68 c9 bd 29 3c eb 3d
       0.06268357 -0.09282039 -0.09834355 0.11486084
000140 8a 7a c8 bd 64 61 c9 3c 81 98 87 be eb 4f d8 3c
       -0.097889975 0.024582572 -0.2648354 0.026405295
000150 60 2f 2a 3d ba b2 1f 3e 4a ef 1e 3e 6d f9 0a 3e
       0.041549087 0.15595523 0.15520969 0.13571711
000160 2a bc 58 3e 16 45 8f 3d 00 0e 3f 3b 97 96 10 3d
       0.21165529 0.06995599 0.0029152632 0.035299864
000170 c9 48 e1 bc d8 dc 6a 3d 72 88 76 bd 0a cc 85 3e
       -0.027500527 0.05733952 -0.06018872 0.26132232
000180 d6 a5 fe 3d 53 37 95 3d a5 e3 06 3e 3d ec a9 bd
       0.124339744 0.07285943 0.13172777 -0.08297012
000190 90 05 f5 3c b8 ba ac bc bc 71 04 bd ce 04 0c 3e
       0.029909879 -0.021085128 -0.032335028 0.13673708
0001a0 01 0e 8e bd ed 01 63 3d 73 89 98 3d 11 3c 2f 3d
       -0.06936265 0.05542176 0.07448091 0.042781893
0001b0 79 21 01 bc 8e 8e 23 be 8f 58 7f be d9 29 2b bd
       -0.007881516 -0.15972349 -0.24936126 -0.041787956
0001c0 11 c4 1a 3e 3b 0d 65 bd f8 5e 35 bb 5c cd 21 bd
       0.15113856 -0.05592082 -0.0027675014 -0.039502487
0001d0 c4 d8 cc bd ad 8d aa bd ae 8b dd 3d d7 5b 52 be
       -0.10002282 -0.08327804 0.108176574 -0.20542847
0001e0 11 7e 16 be 32 3d ae 3b 21 de 1e be 38 38 11 3d
       -0.14696528 0.0053173536 -0.15514423 0.035454005
0001f0 4a cb 41 bb 83 a0 7c bc 26 b3 6a 3d 54 c3 b2 3d
       -0.0029570633 -0.015419128 0.057299756 0.08728662
000200 3f 10 3e be 86 4d 17 bd 70 45 64 3e 05 44 89 3e
       -0.18560885 -0.036939166 0.22292113 0.26809707
000210 97 f2 a0 bd a9 05 3b bc 08 86 c8 bd 67 02 69 be
       -0.0785877 -0.011414924 -0.097911894 -0.22754823
000220 12 5b a8 3d fa c3 33 bd 79 3d 39 bf 19 8b d7 3c
       0.08220495 -0.04388807 -0.72359425 0.026311444
000230 98 dc eb 3c f5 e9 cc 3d 60 b5 40 bd 45 38 63 be
       0.02879171 0.10005561 -0.047047973 -0.22189434
000240 e3 22 04 be 5c 18 3a 3d 86 7d a0 bd 7d 28 d7 bd
       -0.12903933 0.045433387 -0.07836442 -0.105057694
000250 74 b5 e5 3c 25 f9 a0 bc 74 c1 10 bf 92 7a 43 bd
       0.028040625 -0.019650051 -0.56545186 -0.047724314
000260 da 7f ec 3d eb 4e 2a 3c 16 0b c0 bd ff 37 ba bd
       0.11547823 0.010394792 -0.093771145 -0.09092712
000270 49 d2 5f 3c a0 c9 aa 3c a7 01 e5 3d 50 c6 86 bd
       0.013660976 0.020848095 0.11181956 -0.06580794
000280 36 84 fb bd 6f 9f 03 bd 74 87 c2 3c cc f7 cf 3c
       -0.122810766 -0.03213447 0.02374623 0.025386713
000290 e3 e3 28 bd 8f bc 0c be 26 54 f5 bd 96 5b 85 3d
       -0.041232955 -0.13743804 -0.11978941 0.06511609
0002a0 9a 2e 4d bb 87 ba a6 3d 31 a0 0c 3d 74 27 5d 3d
       -0.0031308294 0.08141046 0.034332458 0.053992704
0002b0 6f 5f f3 bc 06 ff d3 3d 3c 91 da 3d 82 93 70 3d
       -0.029708592 0.10351376 0.106722325 0.058734424
0002c0 30 82 97 3d ed db 13 3e a2 4c 53 3d b4 53 0c be
       0.07397878 0.14439364 0.051586755 -0.13703805
0002d0 1e 35 46 3e c4 44 a1 3d 60 91 df b9 99 d0 25 be
       0.193562 0.07874444 -0.00042642187 -0.16192855
0002e0 16 e6 77 bc 40 15 aa 3c 90 4c 10 3e cb 33 09 3d
       -0.01513054 0.020762086 0.14091706 0.03349666
0002f0 6f 32 9f be c8 ab bf bd 52 3a e8 3d 0b a7 13 be
       -0.31093165 -0.093589365 0.11339249 -0.1441919
000300 ab fc b6 3d dd 8f 06 3d 1b 8f e9 bc 5b af 2a be
       0.08934911 0.032852042 -0.02851062 -0.16668455
000310 90 4f 83 3d 8e 2c e0 3b de 12 4a bd 34 31 06 3e
       0.0641166 0.006841249 -0.0493344 0.13104707
000320 72 24 50 3f 00 49 79 ba 96 e5 de 3d 58 fc 47 3d
       0.8130561 -0.0009509474 0.10883634 0.048824638
000330 84 b8 34 3d 22 e3 53 3e 0c 8c 1c be fe 7d 00 bd
       0.04412128 0.20692113 -0.15287799 -0.031370156
000340 9c 13 c9 3d 75 37 70 3e 80 f5 06 bc 42 96 ec bd
       0.09818193 0.23458655 -0.008237243 -0.11552097
000350 ca 5e 3a 3c bd d3 c1 bc 4b 86 16 3e 00 72 ef 3a
       0.011375139 -0.023660535 0.14699666 0.0018268228
000360 3a 94 d9 bc 0b 14 77 bd 76 56 54 3d fc df f8 3d
       -0.026559938 -0.06032185 0.051840268 0.12152097
000370 73 93 ed 3d 47 62 f9 3d 98 f5 0d bd b0 16 69 3d
       0.11600389 0.12176948 -0.034658045 0.056906402
000380 39 ee 30 bd 6b f0 4e bd e3 22 63 3d c6 53 0a 3e
       -0.043195937 -0.05052225 0.055453192 0.1350852
000390 7a c7 47 be ab 30 c6 3d 4d 16 71 be e5 c9 ff bd
       -0.19509688 0.096772514 -0.23543663 -0.1248968
0003a0 07 05 38 3c 72 9f 27 bd f6 ad 74 3e 20 cb 38 bd
       0.011231667 -0.040923543 0.23894486 -0.04511559
0003b0 e5 98 90 bc 96 45 c2 3d 3d 09 fa bd b6 99 6c 3e
       -0.01765103 0.09485929 -0.12208793 0.23105511
0003c0 20 57 cd 3b 1a d1 69 bb db 25 0a 3e 29 d0 2e 3a
       0.0062664896 -0.0035677613 0.13491003 0.00066685915
0003d0 fe 72 8c bd 61 6c 98 3e d3 02 86 bd ba 20 4b be
       -0.068578705 0.29770187 -0.065435074 -0.19836703
0003e0 56 9e cb bd 56 b2 86 3d 4e 33 dc bd 06 e8 c6 bd
       -0.099423096 0.06576984 -0.10751973 -0.09712224
0003f0 b8 ea b0 3d 26 dd b5 3d c4 98 bf 3c c8 37 3a 3d
       0.08638519 0.08880071 0.023388274 0.045463353

fc2.bias f4 [50]
000000 8f 11 9d bc f9 0a af 3b 47 ed 91 bd e7 b4 01 3e
       -0.019173412 0.005341884 -0.07125335 0.12666665
000010 e2 1e c2 bd a4 4f fd bd 3e e1 e3 3c 3f eb 7b 3e
       -0.09478547 -0.12368706 0.027817365 0.24601458
000020 5c c0 ed bd ae d3 e7 3d 9e fc 51 3d 0b fb b6 bd
       -0.11608955 0.113196716 0.051266305 -0.089346014
000030 57 f2 19 be 54 66 c4 bc b7 b5 29 bd a6 14 55 3d
       -0.15033852 -0.023974575 -0.041433062 0.052021645
000040 d6 64 f0 bd 3c 93 a9 bd 06 a4 10 bd 9e 33 10 be
       -0.11737983 -0.08280036 -0.035312675 -0.1408219
000050 6b 5b b4 3b 5b 5f 7a bd 98 f9 ce 3c ac ac 2e 3a
       0.005504062 -0.061126094 0.0252655 0.00066633034
000060 61 2d 99 3d 02 fc 12 3e 3e 89 17 bd 84 6d 15 bd
       0.074793585 0.14353946 -0.03699612 -0.036481395
000070 6d aa d0 bd dc 34 30 3e 65 7b 91 bd 6e 3b 1f be
       -0.10188756 0.17207664 -0.07103614 -0.15550014
000080 9c 10 38 3e 69 15 6e bb d1 c2 aa 3e 53 1f ef bc
       0.17975086 -0.003632868 0.33351758 -0.029189741
000090 d4 e5 9e bd 98 db 76 3d 96 e2 09 be 17 b7 8f 3e
       -0.0775868 0.060268015 -0.13465342 0.28069374
0000a0 63 cd e5 3d 55 d0 33 be d2 60 dd 39 1e 84 ac 3c
       0.11220815 -0.17559941 0.00042224542 0.021059092
0000b0 82 4f 13 be d4 6e 4c bd 05 56 ce bd 47 85 9c be
       -0.14385799 -0.04991038 -0.10075001 -0.30570433
0000c0 3d 7e c9 3d 68 58 e1 bd
       0.09838531 -0.1100319

fc3.weight f4 [10, 50]
000000 bd 6c 3a 3d a1 c6 3e 3e ba 31 ab bd 51 cf be bd
       0.045513857 0.18630458 -0.08359094 -0.09316886
000010 9d 21 b8 3c de 6a 95 bd 65 43 98 bd ad c4 17 3f
       0.022476966 -0.07295774 -0.074347295 0.5928448
000020 f9 e2 06 3e 1b 1b dd bc 41 48 5c 3e 8c 69 06 3e
       0.1317252 -0.026990464 0.21511938 0.131262
000030 3b 43 eb bd a6 37 8f 3d 47 d9 d3 bc 9e d9 3f 3e
       -0.114874326 0.06993036 -0.025860442 0.18735358
000040 b3 b4 9f 3d 28 2e 00 3d 35 06 ad bd 3f 19 c4 bd
       0.077981375 0.031294018 -0.084484495 -0.09575128
000050 06 8a da bd 39 cc d1 be a7 17 09 3e e8 f9 a7 3d
       -0.10670857 -0.40976122 0.13387929 0.08201963
000060 3b 89 e4 3d 01 c1 98 bc 88 e4 d2 bd 16 96 06 3e
       0.11158987 -0.018646719 -0.10297495 0.1314319
000070 a6 85 fa bd af 26 81 be ed 9e db bd 7d 8e 7a 3e
       -0.12232523 -0.25224826 -0.10723672 0.24468417
000080 c3 5f 8b 3e 5a 8b 09 bd 4b 72 a7 bd 2b 74 e7 bd
       0.27221498 -0.03358016 -0.081760965 -0.11301454
000090 f8 23 f3 be 26 2f ab 3d f8 87 ae 3d 65 31 f6 bd
       -0.4748838 0.08358602 0.08522028 -0.1202114
0000a0 a1 0d 83 bd 20 7a 14 3d 64 3f 23 3e b9 d5 0b 3c
       -0.06399084 0.03624928 0.1594215 0.008534842
0000b0 c9 8f ab 3d 67 c6 3f 3d 36 c4 d1 3d 7f a5 bd be
       0.08377034 0.04682007 0.102425024 -0.37040326
0000c0 c5 51 c6 be d1 8a 5c 3d a9 9c f0 3d b6 c6 7a 3e
       -0.3873426 0.053843323 0.117486306 0.24489865
0000d0 30 4c 45 3d 08 42 3a be 39 52 d0 3d 0f 5e 4b bd
       0.04816836 -0.18189251 0.10171933 -0.04965025
0000e0 f2 85 55 be 18 cc 05 3f 10 c4 60 bc 0b e7 f2 bd
       -0.20851877 0.5226455 -0.01371862 -0.11860474
0000f0 94 1a 81 3e 42 e5 5e 3e bf 4d 4d bd 8e 88 07 be
       0.2521559 0.21767142 -0.050122973 -0.13235685
000100 8c 47 aa bd 51 9d 40 3d 47 77 d0 bd 24 3c 45 bd
       -0.08314428 0.04702503 -0.10179 -0.048153058
000110 0a 6e 90 3d 12 d5 01 bd 5c 5c 08 be 46 cf 7b bc
       0.07052238 -0.03169734 -0.13316482 -0.015369242
000120 4d b9 04 3e 74 c8 96 3d 71 72 8f bd ec 30 da bd
       0.12961312 0.07362452 -0.0700425 -0.10653862
000130 2c 19 b0 bd 39 c3 e2 3c ea 99 78 bd 54 b6 a0 be
       -0.08598551 0.02768098 -0.06069366 -0.31389105
000140 ce ce 42 3d cb ff 8e 3e df 04 6a 3e 6c bd 1a 3e
       0.047560506 0.2792953 0.2285342 0.15111321
000150 3e 33 ff bb 6c 04 9a bd a9 67 c4 be 82 76 9b bd
       -0.007788091 -0.07520375 -0.38360336 -0.07590963
000160 d3 24 09 3e 00 1d a6 bd 0e 98 6f 3d 17 36 fb bd
       0.13392954 -0.08111 0.05849462 -0.12266176
000170 91 49 b2 3e c2 e5 9d bd ed 84 5b 3c 58 40 86 bd
       0.34821752 -0.077098384 0.013398391 -0.06555241
000180 0c 7e 56 bd ba 28 21 bc a7 34 f2 be 93 df ca 3d
       -0.0523663 -0.00983637 -0.47305796 0.09905925
000190 a0 3e 34 bc d0 fe 75 3d 3c 17 b7 3d d2 b5 22 bd
       -0.011001259 0.06005746 0.089399785 -0.03972418
0001a0 ca d1 8b 3d 36 7e 36 bd db 50 f0 bd 60 ab 1e 3c
       0.068271235 -0.044553958 -0.11734172 0.009684414
0001b0 b4 f3 07 be b4 c7 d6 bc 3c 3c 43 bd c9 89 84 bd
       -0.13276559 -0.026218273 -0.047664866 -0.06471593
0001c0 00 2d 1b bb 3c 61 a3 3d e0 e4 ec 3c 4a c7 db 3d
       -0.0023677945 0.0797753 0.02891773 0.10731371
0001d0 b6 6f 88 bd 2a 0a b0 3d 5a 00 01 be 10 ed 4b bd
       -0.06661932 0.08595689 -0.1259779 -0.049786627
0001e0 18 44 bd bc c2 25 7f bd 20 7c 97 3b b9 46 01 3e
       -0.023103759 -0.062291868 0.004622951 0.12624635
0001f0 46 27 f3 bd 15 77 84 bd 84 15 47 3d 0c 06 be bd
       -0.11872725 -0.064680256 0.048604503 -0.09278497
000200 7b a3 0b 3e ce 13 59 bd f2 76 41 bd 8a d6 a7 3d
       0.13636582 -0.052997403 -0.047232576 0.08195217
000210 a9 db 86 bd 1f 3b d1 bd b4 72 be 3d 48 8b a7 bd
       -0.065848656 -0.102163546 0.09299222 -0.08180863
000220 c0 87 42 3c 40 7a fa bc 80 f4 c9 bc 90 57 ca bc
       0.011873186 -0.030575871 -0.02465272 -0.024699956
000230 84 31 67 bd 70 53 21 bc 00 90 32 3d ca 96 d2 bd
       -0.056443706 -0.009846553 0.04359436 -0.10282667
000240 a0 33 f3 bd 28 75 c8 bd ef e4 f9 bd f4 9c f4 bd
       -0.11875081 -0.09787971 -0.12201869 -0.11943999
000250 b8 24 c4 3d 27 67 0f be e5 66 ca 3d 82 b0 96 3d
       0.09577316 -0.14004193 0.09882907 0.07357885
000260 f6 d7 1e be c9 9d f2 bc ec 9f 2f 3e c4 43 ca bd
       -0.1551207 -0.029616253 0.17150849 -0.098762065
000270 6e 43 dc bd 6f 2b 9a 3d 00 4b 32 3b 23 4d 5c 3c
       -0.10755049 0.075278156 0.0027205348 0.013446125
000280 16 2f 3a 3e 99 14 5f 3d 3c eb c5 3d a0 72 c0 bb
       0.18182024 0.054463003 0.09664008 -0.0058730394
000290 7e 59 a3 bd d6 34 d4 3d 77 52 97 3d 12 cb ce 3d
       -0.07976054 0.1036164 0.07388776 0.10097326
0002a0 c3 62 50 3d 8c f8 d0 3d 1b f7 bf bc 7a 24 a5 3d
       0.050875437 0.102036566 -0.023433259 0.08063598
0002b0 7e 94 f8 bb dd 23 32 3d d0 0d a0 3d 05 14 95 bd
       -0.007586061 0.043491233 0.078151345 -0.07279209
0002c0 d0 c8 a0 bd 53 3f 8c 3d 13 79 f0 bd 97 5d 72 bd
       -0.07850802 0.06848016 -0.11741843 -0.059171285
0002d0 fa 6e a9 3d 03 ac 6b bd b1 f9 06 be 8a 40 fa 3b
       0.0827312 -0.05753709 -0.13181187 0.007637088
0002e0 3d a5 12 bc fa 7c b2 bc 44 a1 9e 3d db 85 82 3d
       -0.008950529 -0.02178811 0.07745603 0.06373187
0002f0 aa 60 58 bd 79 f9 fe bd 50 75 bc 3d 8f 4f b5 3d
       -0.05282656 -0.12449927 0.09202063 0.08853065
000300 f9 a7 3b 3e 78 ed 44 3e 46 e6 84 bb 9b 2c b1 3b
       0.18325795 0.19231212 -0.004055771 0.0054069287
000310 cc 33 0f be 0c 4a 86 3d 9a 15 99 bd 53 8c 18 3e
       -0.13984603 0.06557092 -0.07474823 0.1489728
000320 aa 1f 85 3d ac 5f 89 3c ea 5b e9 3d fa bd e4 bd
       0.0650018 0.016769253 0.11394484 -0.11169048
000330 c9 c2 7a 3d 02 0c c6 bd 2f 7e 85 3d c1 cb 03 3d
       0.061220918 -0.09670259 0.06518208 0.032176737
000340 c0 dd 6c bc 41 dd c7 3d cb 1b 78 be 4f a8 0a 3e
       -0.014457166 0.09758998 -0.24229352 0.13540767
000350 6d ee 0f 3e 7a 98 82 3d e0 59 39 bd fd 33 9d bd
       0.14055796 0.06376739 -0.045251727 -0.076759316
000360 04 ef 4a bd 43 46 da 3d 21 29 1c bd 08 2f 7a 3d
       -0.04954435 0.106579326 -0.03812516 0.06108001
000370 95 f4 46 3d 6f 4c 24 3e 21 23 05 3e a7 b8 77 3d
       0.048573095 0.16044782 0.13001682 0.060478833
000380 bb 5c c4 bd 8a 35 d1 3d 80 8f 78 bd e3 ef 1c bd
       -0.095879994 0.1021529 -0.060683727 -0.03831471
000390 47 66 ad 3d 79 83 18 bd 92 46 4e 3d 37 34 2a be
       0.084667735 -0.037234757 0.05036027 -0.16621481
0003a0 8d 55 34 3e 6f fd 00 3d 11 48 b6 3d 02 ab e5 3b
       0.1761076 0.031491693 0.08900464 0.007008911
0003b0 98 45 24 3e be b7 bb bc be ea e2 3d f1 d0 56 3e
       0.16042173 -0.022914764 0.1107993 0.20978142
0003c0 56 c5 a3 3d 34 fb 02 be 4b d1 0c be e9 ba 16 3e
       0.07996623 -0.12791139 -0.13751714 0.14719738
0003d0 20 a8 11 bd d3 ad 03 bc 48 3b 45 3d f2 b8 17 bd
       -0.035560727 -0.008037048 0.048152238 -0.037041612
0003e0 f4 da aa 3c 40 7d 71 bd 10 41 91 3d 2f de 8d 3d
       0.020856358 -0.05895734 0.07092488 0.06927144
0003f0 09 8a fc 3d 88 a2 60 bd 3d 58 d4 3d 97 67 a7 3d
       0.123310156 -0.054842502 0.103683926 0.08174055

fc3.bias f4 [10]
000000 0e c8 1b 3e d7 19 34 be ae 3c 0c bd 27 f0 c3 bc
       0.15213034 -0.17587982 -0.034237556 -0.023918224
000010 f9 9c 8c 3d 04 8c 4b 3e d5 9a 38 be ba 59 e6 bb
       0.06865878 0.1987763 -0.18027814 -0.007029739
000020 8c 73 dc bd fa 21 9d 3d
       -0.10764226 0.07672496

fc4.weight f4 [10, 10]
000000 6f d0 34 bf 03 3f 3b bf b0 88 c4 bd b3 21 47 be
       -0.70630544 -0.73143023 -0.095963836 -0.19446449
000010 63 33 b9 3e e4 ac 0d 3e 11 c9 bf bf 9c 21 f7 3d
       0.36172017 0.13835484 -1.4983236 0.12066957
000020 24 61 97 be e5 d6 d8 3e 53 70 25 3f 67 5f 87 3e
       -0.295663 0.42351452 0.6462452 0.26439974
000030 ae 6a 4b be 40 93 a7 3e 68 73 7e 3d 65 b2 94 3e
       -0.19864914 0.3272953 0.06212178 0.29042354
000040 4a 49 84 3f 76 28 be 3d 5c ef 7e bd 2e 67 cc bd
       1.0334866 0.09285061 -0.06223999 -0.099806175
000050 3b 95 d3 be ee 88 d2 be 88 f4 6e bd fe 94 cd be
       -0.4132479 -0.41120094 -0.058338672 -0.40152735
000060 ef 32 56 3e eb 6c 85 be 37 12 42 bf 34 a8 58 be
       0.20917867 -0.2605966 -0.75809044 -0.21157914
000070 74 48 54 be 8a 6a 3b 3f 40 b3 1f 3d 6a e5 46 be
       -0.20730764 0.7320944 0.038989305 -0.19423452
000080 50 e4 7d 3d 69 70 5e 3e 7e e0 9a 3d 0a 8a 54 bc
       0.061985314 0.21722569 0.0756235 -0.012972364
000090 f9 8d c3 bc 13 a2 b2 3d 45 51 ff 3d 2c 66 39 3e
       -0.023871409 0.087223195 0.12466673 0.18105382
0000a0 c2 ce e9 3d 91 f9 04 3e a2 25 11 3e c1 01 f6 3d
       0.11416389 0.12985827 0.14174512 0.12012053
0000b0 31 4a 12 3c f0 bb 3e be 17 91 9e 3e 5d 46 f1 3d
       0.008928821 -0.1862638 0.3097007 0.11780999
0000c0 bf 8e ea bd 23 fb 65 3e 49 65 c2 be ed 79 08 be
       -0.11453008 0.22459082 -0.379679 -0.13327761
0000d0 8a 0f 3d be 65 28 f6 3c ed be 05 be a7 74 a5 3e
       -0.18462959 0.030048558 -0.13061114 0.3231556
0000e0 df 41 a4 bd 1d 04 c0 3e 98 7b 0e 3d 71 42 82 be
       -0.080203764 0.37503138 0.034785837 -0.25441316
0000f0 83 6c d4 ba 76 b7 e4 3e 10 55 cf 3c 15 e4 46 bd
       -0.0016206655 0.4467122 0.025309116 -0.04855736
000100 85 66 e0 bd 4c c0 66 3c 4d 25 43 3f f1 02 96 3e
       -0.10957054 0.014083933 0.7622879 0.2929912
000110 58 cb 8e bd 6e 4d 0a bc b1 63 21 3e a3 98 01 be
       -0.069723785 -0.008441312 0.15760686 -0.12655883
000120 27 e1 1f be df af 78 bd dd 5f 37 be 8d 7c 55 be
       -0.15613233 -0.0607146 -0.17907663 -0.20848294
000130 f1 d0 5c bd 04 c5 81 3e ef 16 3c be 16 40 a2 be
       -0.0539102 0.25345623 -0.18368123 -0.3168952
000140 7e c9 60 3e 72 a1 0d 3e 6a f9 3c be a6 28 02 be
       0.21951863 0.13831118 -0.18454519 -0.12710819
000150 78 a0 c3 bd a2 b2 bb 3d e5 ad 7a 3e 7b 2b 4d be
       -0.09552091 0.09164931 0.24480398 -0.20036118
000160 9f 6e 9a bd ab 22 1c be 5e 80 ac 3d b5 e2 6d be
       -0.075406305 -0.152476 0.084229216 -0.23231013
000170 62 03 74 3e a5 2c ba be c6 48 1c bd e3 7d 6e bc
       0.23829415 -0.36362186 -0.03815534 -0.014556381
000180 25 42 2f be 5d f7 7c 3e aa 1c 66 3e 3c f3 59 3d
       -0.17115076 0.24703737 0.22471872 0.053210482

fc4.bias f4 [10]
000000 9b 56 b8 bd 1f bf 4a 3d 08 4a 1a be c5 f2 92 3e
       -0.09000894 0.049498674 -0.15067303 0.28700843
000010 1d a4 a3 be 0e c1 5d 3d 7b 69 50 3e e2 d1 9e be
       -0.31961146 0.05413919 0.20352738 -0.31019503
000020 e6 40 5f bd 13 62 be b9
       -0.05450525 -0.00036312695

out_x.weight f4 [2, 10]
000000 69 d7 2f bf 81 41 ce 3e 0d 97 cb bf b1 a0 c4 3e
       -0.68688065 0.4028435 -1.5905472 0.38403848
000010 44 fd ae 3e 87 97 9f bf 07 91 62 3e 7a a6 fd 3e
       0.341776 -1.2468117 0.22125636 0.49541074
000020 7c c6 08 3f ba 8d ab be fd 5c c7 be 2c 1d 20 3f
       0.53427863 -0.33506566 -0.38938132 0.6254451
000030 a9 fe e3 bf f0 32 13 be 5f 9e 98 3c c2 e1 5e 3f
       -1.7812091 -0.143749 0.018630205 0.8706323
000040 85 82 08 3f 89 61 5f 3e c9 fb 8f 3e 0e 3f 27 bd
       0.53324157 0.2181455 0.28121784 -0.040831618

out_x.bias f4 [2]
000000 41 e8 58 3e 04 4d 79 bc
       0.21182348 -0.015216116

out_y.weight f4 [2, 10]
000000 a1 32 ee 3e b7 a9 0f bf f4 b7 3f be 2e 20 97 3e
       0.46523002 -0.5611834 -0.18722516 0.2951674
000010 5c aa 2f bf 3f a3 50 3d 61 16 30 be 31 d8 82 be
       -0.6861932 0.050936934 -0.17196037 -0.25555566
000020 b9 a2 1c 3d 7d c3 9e bd d5 6b 45 bf 1d 27 cd 3d
       0.038241122 -0.0775213 -0.77117664 0.10017226
000030 f9 ff 8b bf 4d 58 8b bd e2 0c 3c be bf 74 d4 bd
       -1.0937492 -0.068039514 -0.1836429 -0.1037383
000040 c8 26 f6 bb 44 81 04 3e 83 1d 9a be 8f 9a 1b bf
       -0.0075119473 0.12939936 -0.3010064 -0.6078271

out_y.bias f4 [2]
000000 62 67 14 be 71 9a 65 3e
       -0.14492562 0.22422196

out_theta.weight f4 [1, 10]
000000 68 e7 2a bd 50 7b 49 bc c7 fd 9c 3c 86 a8 45 be
       -0.041724592 -0.012297466 0.01916398 -0.19302568
000010 7d bb ef 3d 4b 8e 15 3d 56 cb 06 bd 48 cc 08 3e
       0.117056824 0.036512654 -0.03290876 0.13359177
000020 e7 c9 0c bd 7c cf 90 3e
       -0.034372237 0.28283298
