models/contact_net_v1_clipped_small.pt (torch, 20463 bytes, 15 tensors)

fc0.weight f4 [10, 3]
00000000: d30e 95bf 203e a03e 6075 9fbd 43c3 d6be
00000010: 5f05 ac3e 386c 35bf 5438 22bf b7c4 f5be
00000020: e4aa e33e ea15 67be 9d74 e7be 57b6 833e
00000030: 36bc 44bf 293e 07bf 9eec 0dbf 3dd2 88bd
00000040: 7e88 b93c 7a08 4c3e ce01 e03f b6a0 e93e
00000050: b140 083f 9df8 c8be 70fa 0dbf 5b99 9bbe
00000060: 0e02 0440 ba2c 113f ee8b 293e 011a 9fbf
00000070: dfbd 133f 8cf5 ad3d
-1.1645149 0.31297398 -0.077860594 -0.41945848 0.33597848 -0.70868254 -0.633672 -0.48001644
0.44466317 -0.22566953 -0.45206156 0.25725052 -0.7684969 -0.52829224 -0.55439174 -0.06680725
0.022648092 0.19925109 1.7500551 0.45630425 0.5322371 -0.39252177 -0.5546026 -0.30390438
2.0626254 0.5670887 0.16557285 -1.2429811 0.57711595 0.084941

fc0.bias f4 [10]
00000000: 97d6 173f b16a 1d3f 008c a2bd 6950 843c
00000010: 0fbe e73e 4e47 47bf 9609 023f fd40 ab3e
00000020: 2c5b 533e bba4 ab3e
0.59311813 0.61490923 -0.07936859 0.016151624 0.4526219 -0.7784318 0.50795877 0.3344802
0.20640248 0.33524117

fc1.weight f4 [50, 10]
00000000: 701b 90bc 5505 2d3e 3760 973e dabf da3c
00000010: 2afb b4bd 5304 4a3e dbae 57be 91c6 293e
00000020: fbce 5b3e 39d4 523d 778a 01be 5fd0 9abe
00000030: ab2c 88be b864 85be 0616 263e 6b14 173e
00000040: adf4 8c3e 3ed7 0abe 2721 c53d 5c04 183c
00000050: 21af 93be 46fe ecbd c37a d1bd 6798 013e
00000060: 23b4 10be 1689 a93d 7f43 c03b da74 733e
00000070: 46c1 be3d 69a2 4fbf b758 78be fade b43e
00000080: 8e67 e3bd 5055 9ebe b3aa 13bf 5e3b 92be
00000090: 871c 8f3e e84d 73be a8b3 253e b591 453d
000000a0: 75ce afbe fded 69be 9976 c23e 9614 7bbd
000000b0: fb60 9e3e 0b00 e3bd 78c5 a93e 31cd 6cbe
000000c0: 1d81 8b3e adf7 47be b97a a4be 61e0 303d
000000d0: 2c06 99be a063 013e 6172 903d a265 9bbd
000000e0: 1824 1fbd d9cd 403e fea0 aabd ffe1 193d
000000f0: 3bab aa3e 475b 923e 83e3 723e 7cdb 35bd
00000100: ee06 a13e 19cd 363e 9430 5ebd 290e cc3d
00000110: 1fa9 e6be 95b6 123e 07a2 d6be 5dd9 39be
00000120: d90e 213e 030a 9e3c ce84 923d 403a acbc
00000130: 1591 a83e 91db bb3e 506c ad3e 9e7a 32be
00000140: d2dd 303e 9046 873e dad0 0b3e 4457 fd3d
00000150: cf4c 9c3e d712 3f3d 9230 e93d 2b78 e2bd
00000160: 94df 98be 5a9b 7d3e f8b7 75be 1875 75be
00000170: 6c0e 87be 7d68 a1be 388f 083d 3f05 f2bb
00000180: b556 8dbd 4c5f 2f3e 55d9 443d 4029 e8bd
00000190: d848 84be 7a6c c33e ccc3 1e3e 93b2 4dbe
000001a0: bff1 f7bc 0e21 c63e 7f41 8c3e ea6c 8abe
000001b0: a10f d23e 8b25 32be 0fb7 a5bc e96d 60be
000001c0: f9dd a73d 9809 e43d 49bf 283e 4132 953e
000001d0: 4d64 c1be 4943 6cbb 50f8 113e ba0d 49be
000001e0: 2895 87be 3432 84be 6ee2 8cbe 85d7 8ebe
000001f0: d013 443d 9ebf 0f3f 668d 5d3d f4c1 88bd
00000200: 6a36 e13e ccf1 b3bd dfa7 3abe 30c9 863e
00000210: 0e20 49be 9020 b0bd 0b44 ba3d c8c4 9d3d
00000220: 459d e2bd a5ec b13d 9e8c 5dbe b2ca 713e
00000230: 9e68 c03e fbb3 923d 7a76 5bbe bc97 98be
00000240: 5d20 f93c 2773 2bbe ee5c 19be 8e13 293e
00000250: 3be1 48bc 0e96 643e aef7 c5be 9ac9 95be
00000260: a52c 71be db12 353d 9e7d 993e 0b23 973f
00000270: 6b1f 4a3e 447c 63be 772c 113e 827b 1d3e
00000280: 14dd 5bbe 8fa6 38be d4f9 04be c825 52bd
00000290: f6e4 80bd a3be 9b3e c63f 1fbe a248 55be
000002a0: 3243 31be 30f7 923e fe1c 6bbf 5bfd a9be
000002b0: 4550 9dbe a618 9ebe 3d75 15be 65ec bb3f
000002c0: 386d 29be 8ebb 593e 80cf d53e 679c b7be
000002d0: 725d e53e 3fc8 963e c3cf b2be ebfb 83bd
000002e0: e5ff 1b3e 8c2d 77be cbdd 78be ae31 273e
000002f0: 0c1c b6be f73c 133e 903b 67be 8370 55be
00000300: 626f 1f3c 0c80 d53d 0103 403e 6643 2f3e
00000310: 331d 34be 7186 7c3e 48fc 1f3d 0da2 18be
00000320: 7c32 b93e 51c5 f3bd a7de 9b3d 4cc3 58be
00000330: dc4b 89be 451d c73d 2543 1b3d 308d fabd
00000340: dac1 a3bd b5f5 ab3e 9d23 923e 7a3e 93bd
00000350: 4e51 84be 2a64 6a3e 100c d23e b94c f5bd
00000360: a92b 3fbe 8c27 83bd fc5f 0cbf d6e1 d73d
00000370: 3ca8 b6bd 0751 043e 1735 953e ef6b 723d
00000380: 7a0f a9be 329c b4bd 10af 733e 4958 40be
00000390: e273 95be 2dd7 253e 03cf 46be 0993 49be
000003a0: 02dc 6fbe aa73 16be 671c b43e d19a 953e
000003b0: 2dcc a03e 43f2 853e f7f8 213e eb46 d6bd
000003c0: 8fb2 a13e 938d b73e b769 0dbe 95ec 0bbe
000003d0: b407 dd3d 4129 1439 0f1f 44be a98a 3dbe
000003e0: 7c3d d8be a624 2a3e 35e7 7f3e 7225 94be
000003f0: 7540 89be e674 13be 53c9 1b3d 8623 5b3e
-0.017591208 0.16896565 0.29565594 0.02670281 -0.08836968 0.19728212 -0.21062796 0.16579653
0.21465676 0.051471923 -0.12650476 -0.302371 -0.2659658 -0.26053405 0.16219339 0.14753883
0.27530423 -0.13558671 0.09625464 0.009278383 -0.2884455 -0.11571936 -0.10228493 0.12655793
-0.14131217 0.082781 0.005867421 0.23775044 0.09314208 -0.81107193 -0.24252592 0.35326368
-0.11103736 -0.30924463 -0.5768234 -0.2856092 0.27951452 -0.23760188 0.16181815 0.04823466
-0.34337202 -0.22844692 0.37981108 -0.06129893 0.30933365 -0.110839926 0.3315847 -0.2312515
0.27246943 -0.19528075 -0.3212488 0.043182734 -0.2988752 0.1263566 0.07053066 -0.07587744
-0.03885278 0.18828525 -0.08331488 0.037569042 0.33333763 0.28585264 0.23719601 -0.04439877
0.314506 0.17851676 -0.054245546 0.09963638 -0.45050904 0.14327462 -0.41920492 -0.18149324
0.1572832 0.019291883 0.07154237 -0.02102387 0.3292319 0.36690953 0.33871698 -0.17429587
0.17272118 0.26421022 0.1365389 0.1237016 0.3052735 0.046648826 0.11386217 -0.110580765
-0.29858077 0.24766293 -0.2399596 -0.23970449 -0.2637819 -0.3152503 0.03333971 -0.0073858793
-0.06901304 0.17126197 0.048058826 -0.11335993 -0.25836825 0.381687 0.15504378 -0.20087652
-0.03026664 0.38697094 0.2739372 -0.2703622 0.4102755 -0.17397134 -0.02022889 -0.21916927
0.08196635 0.11134642 0.1647922 0.29139903 -0.37771836 -0.0036050847 0.1425488 -0.19634143
-0.26480985 -0.25819552 -0.27516502 -0.27898803 0.047870457 0.5615176 0.054089926 -0.066776186
0.43986827 -0.087863535 -0.182281 0.2632537 -0.19641134 -0.08599961 0.090950094 0.07703549
-0.11065153 0.086877145 -0.21635672 0.23612478 0.37579817 0.07163235 -0.21431914 -0.29803264
0.03041094 -0.16743146 -0.14976856 0.16511366 -0.01226073 0.22322866 -0.38665527 -0.29255372
-0.23552187 0.044207435 0.2997865 1.1807569 0.19738548 -0.22215372 0.14177118 0.15379146
-0.21471053 -0.18032287 -0.12985927 -0.051305562 -0.06293671 0.30418882 -0.15551671 -0.20828488
-0.17310789 0.28704214 -0.91841114 -0.33201107 -0.30725303 -0.3087818 -0.14595504 1.4681517
-0.1654557 0.21262953 0.41759872 -0.35861513 0.44797856 0.2944965 -0.34924135 -0.06444534
0.15234335 -0.24138469 -0.24303357 0.16327545 -0.35568273 0.14378725 -0.22581315 -0.20843701
0.009731146 0.10424814 0.18751146 0.17115554 -0.17589264 0.2466066 0.039058954 -0.14905567
0.3617133 -0.119028695 0.07610827 -0.2116825 -0.2681569 0.097223796 0.03790583 -0.12233961
-0.079959586 0.33585897 0.28542796 -0.07189651 -0.2584328 0.22889772 0.41024828 -0.11977524
-0.18668999 -0.06404027 -0.5483396 0.10541122 -0.08918807 0.12921534 0.29142067 0.059184965
-0.3301962 -0.088188544 0.2379725 -0.18783678 -0.29189974 0.16195364 -0.19414906 -0.19684996
-0.2342377 -0.1469256 0.3517792 0.29219678 0.31405774 0.26161394 0.15817629 -0.10462745
0.31581542 0.358502 -0.13809858 -0.13664468 0.10792485 0.00014129748 -0.19152473 -0.18509926
-0.4223441 0.16615543 0.24990542 -0.28934819 -0.2680699 -0.14400062 0.038033795 0.2140027

fc1.bias f4 [50]
00000000: 1929 5a3e 0a0b 3dbe 17d6 31be 7df2 853e
00000010: 210c 8e3e 9607 0b3e 6713 e7bd c219 c53d
00000020: d0d6 4c3d 7d36 a53a ae92 59be 8911 95be
00000030: 6bb8 15be cae9 1abb d54d bdbd 5e4c 1dbd
00000040: 6254 a23d d06f 8dbf 39b2 1bbe a4d0 81bb
00000050: e8ed 253e b5b5 c1be 733c 4c3e 61f9 73be
00000060: b51b 0f3e aef0 67bd dab4 273e 9c74 80be
00000070: 4f76 05be 3d19 9b3e 530b 123e bf61 043d
00000080: c207 923e 84f0 713e cff6 1ebd 2418 03be
00000090: 0093 d0bb 250f 01be 209f 59bf 0c27 373e
000000a0: 1587 d9be bb33 493e 3168 46be d0bd 823e
000000b0: bc2a 833e 7a16 0fbe d4c3 ba3d bd2c b93d
000000c0: c947 30be f028 34bd
0.2130474 -0.18461242 -0.17366825 0.26161566 0.2774363 0.13577113 -0.112829976 0.096240535
0.05000955 0.001260474 -0.2124736 -0.2911494 -0.14621131 -0.0023637884 -0.09243361 -0.038402908
0.07926251 -1.1049747 -0.15204705 -0.0039616395 0.16204035 -0.37833944 0.19944935 -0.23825599
0.13975413 -0.056626014 0.16377583 -0.25088966 -0.13033412 0.30292693 0.14262132 0.03231978
0.28521544 0.23626906 -0.038809594 -0.12802178 -0.00636518 -0.12603433 -0.8500843 0.17885989
-0.42485872 0.1964864 -0.19375683 0.2553544 0.2561854 -0.13973418 0.091193825 0.09041736
-0.17214884 -0.043984354

fc2.weight f4 [50, 50]
00000000: 9b80 f63d a621 873d 2cb3 3fbe 1bc0 b2bd
00000010: 4163 683d b426 a8bd e1f6 063e c614 26bd
00000020: f370 9b3d aeae a83d 14ee 433e 0b6a 993d
00000030: 3549 2f3e 6524 d0bc e88f ec3c 6524 0b3d
00000040: e4b9 4d3d bd3d 313f 4201 093e 3dbc debb
00000050: 6d80 23bd e011 55bd 1bb9 1abd 1051 3f3d
00000060: ca31 febc c1a8 e8bd 1f8a fdbd 7ee4 973d
00000070: 1b64 ae3c c3df a33d 66a5 0f3e e95b f8bd
00000080: 8d67 0dbe 484c b83d a04c c8bd c786 68bd
00000090: fcac 23bd 1d8c 57bc 847d 923d e4fa 023e
000000a0: 5c69 b8bd 6941 efbd 4b7b b33d 8bff 733d
000000b0: 617b 1ebe ee69 613e abae 633d 56da 6bbc
000000c0: f5ac 933d 882b e8bd 6f67 2abd d802 c7bc
000000d0: d01f 3b3d d68b 17bd 0117 cc3d 4000 783c
000000e0: b56c cc3d d76f 6fbc 8404 ecbd de25 c2bd
000000f0: f66e b6bd 3aed d5bd 6984 96bd b4bc 14be
00000100: fcf6 93bd d044 533d 9a3e d3bd 6830 e03c
00000110: ca39 cebd 72cc 14bd 0d80 10be b07d a33d
00000120: 9ca9 bf3d ccb9 993d ae86 eb3d 5695 b2bc
00000130: 4099 6fbb 0647 ff3d 9191 b2bc 4037 ddbd
00000140: 882f c53c 0bf2 66bd d0de f93d 02c3 67bd
00000150: a305 df3c f044 523d 638b 93bd 258a e4bd
00000160: bf69 0bbe 5ef3 da3b 0080 56bc eab9 f33c
00000170: d052 1ebc e0d6 d23d 9d64 49bd 444e c9bc
00000180: 9dd9 acbc 48df f4bc c76f 57bd f985 6cbc
00000190: 6e2a 17be c082 30bc 289f 4bbd a032 4cbd
000001a0: 9cb6 61bd 9161 793d d067 40bc c203 bfbd
000001b0: 25cb 3d3d 74c9 c3bd 8fe9 50bd f087 223d
000001c0: 8c0f 253d 41bf 19be f530 383c 531c 643c
000001d0: 686c afbb bf97 033e fb64 f4bc 41d2 01be
000001e0: f0f5 e9bd f20d 213c 785f a5bb 9e97 aebd
000001f0: fa14 9c3d 23b9 233b fdec 78bc 3a9f 8cbd
00000200: 79bd af3b 46a0 dfbd 2f6c c73d 501a 98bc
00000210: c295 29bd 54f4 e53c 0020 823d f7da 12be
00000220: fd98 a4bc c52d d4bd 8a4c 6b3d b5f0 11be
00000230: b3ef d2bd 8006 99bc 346c 0bbe 9697 87bc
00000240: 1277 8cbd 20a9 a3bd 31cb ba3d 38ea 183d
00000250: bb08 38bd e511 d1bc 043c 3b3e e734 873d
00000260: 2721 313d a9b4 0d3e e38f 473d 000f 02bb
00000270: c0a3 04bd 0024 533e 3c44 d0bd 9e82 91bd
00000280: 3104 013e fa54 46be cd59 3b3e c5e9 bfbd
00000290: 73c7 153d 903a 82bd 6b0a a23d 49c8 18bf
000002a0: 80aa f7bd f968 6ebe ed1d d43d 0bb4 59be
000002b0: 64f9 3a3c f024 183e 86d0 52bd 170e e7be
000002c0: a893 1fbe 03b8 b33d d42d dc3c 158d b1bd
000002d0: cdbc 133e 7fd5 99be 2eba a33d 0bd5 923e
000002e0: 51f3 fb3d cee7 12be c028 5b3c a509 693e
000002f0: e6ee c4be f826 2f3e 4768 8cbe c5d5 4e3c
00000300: ac5c c6bc 998b 373e 9256 81be 756a 853e
00000310: 2648 493e 7a9c 463e 56f9 cc3c 2cba e33d
00000320: ed8f a63d ed80 4ebb 3843 20bb 5022 22be
00000330: 7bd1 bfbd 9a16 4fba 3d08 bc3d a65d 11be
00000340: 8b77 2fbd cc9d 43bd f7ea 94bd c601 00be
00000350: 00e5 4abc 15e6 a23d 0369 133d c2d1 7b3d
00000360: 6462 933d f100 9ebd e0eb f6bc 0152 92bd
00000370: 47ee da3d 3d65 e8bd a5ab cebd 710e b8bd
00000380: 9fb3 8f3b f946 a4bd e982 fc3d ea8d fcbb
00000390: 9f4c 413d 2879 c1bc 2b71 81bc 2a42 bebd
000003a0: 5a2c 043e 350c 5d3d 67f0 18bd ceee 433d
000003b0: bd12 debd 22b7 9f3d 8260 97bd ff5f a13c
000003c0: 6507 eb3d eef1 ddbd 2829 9ebd 56ac de3c
000003d0: 4787 a9bd a394 08be 92e9 14bd c06d 82bc
000003e0: c022 13bb 222c 8b3d ad42 c23c 2608 ad3d
000003f0: b08f b4be e1ec 21be c6f1 413e aafa 2b3c
0.12036248 0.06598215 -0.18720692 -0.087280475 0.05673528 -0.08210507 0.13180114 -0.040547155
0.07589903 0.082364425 0.19133788 0.07490929 0.1711777 -0.02540798 0.028877214 0.033970255
0.050226107 0.6923483 0.13379386 -0.006797342 -0.0399174 -0.052019 -0.037774187 0.046708167
-0.0310296 -0.11360312 -0.1237986 0.07416628 0.021287968 0.080016635 0.14027938 -0.121269055
-0.13809033 0.089989245 -0.0978024 -0.05676916 -0.039959893 -0.013155964 0.071528465 0.1279102
-0.09004471 -0.11682398 0.08763751 0.059569877 -0.15476753 0.22013065 0.0555865 -0.014395317
0.07210723 -0.11336428 -0.04160255 -0.024293348 0.045684636 -0.036998592 0.09965325 0.015136778
0.09981672 -0.014614067 -0.11524299 -0.09479879 -0.08907883 -0.10445638 -0.07349474 -0.1452511
-0.07224843 0.051579297 -0.10314675 0.027366832 -0.10069616 -0.036327787 -0.14111347 0.07982957
0.09358522 0.07506141 0.115002975 -0.021799725 -0.003655985 0.124647185 -0.021797927 -0.10801554
0.024070516 -0.056383174 0.12200701 -0.05658246 0.027224367 0.051335275 -0.0720432 -0.111591615
-0.13614558 0.0066818437 -0.013092041 0.029751737 -0.009663299 0.102948904 -0.049168218 -0.024573453
-0.02109986 -0.029891625 -0.052596834 -0.014436238 -0.1476228 -0.010773361 -0.04971233 -0.049852967
-0.05510579 0.060884062 -0.011743501 -0.093268886 0.04633631 -0.095599085 -0.05100399 0.03968042
0.04029803 -0.15014364 0.011242141 0.013922769 -0.005353499 0.12850855 -0.029833307 -0.12677862
-0.11423862 0.009829985 -0.005046781 -0.085250124 0.076211885 0.0024982176 -0.015193221 -0.068663076
0.005363163 -0.109192416 0.09737431 -0.018567234 -0.041402586 0.028070606 0.0635376 -0.14341341
-0.020092482 -0.10360292 0.05744604 -0.14251979 -0.10299625 -0.018679857 -0.13615495 -0.016551774
-0.06858648 -0.079912424 0.09120787 0.037332743 -0.0449302 -0.025521228 0.18284613 0.06601887
0.043244507 0.13838448 0.048721205 -0.0019845366 -0.032382727 0.20619202 -0.10169265 -0.071049914
0.12599255 -0.19368353 0.18295975 -0.0937076 0.036567163 -0.06358826 0.07912143 -0.5968061
-0.12093067 -0.23282231 0.103572704 -0.21260087 0.011411998 0.1485784 -0.051468395 -0.45127937
-0.1558367 0.08775332 0.026877321 -0.086694874 0.1442749 -0.30045697 0.07994495 0.28678164
0.12302268 -0.14346239 0.013376415 0.22757585 -0.38463515 0.17104709 -0.27423307 0.012624209
-0.024214111 0.17924346 -0.2526136 0.26057783 0.19656429 0.19395629 0.025021236 0.11119494
0.081329204 -0.0031509951 -0.0024454128 -0.15833402 -0.09366127 -0.0007899791 0.09181259 -0.1419588
-0.042838614 -0.04775791 -0.072713785 -0.12500677 -0.012383699 0.07954041 0.03598882 0.061479338
0.07196501 -0.07715023 -0.03014177 -0.07144547 0.10689979 -0.11347435 -0.10091332 -0.089871295
0.004385426 -0.080213495 0.12329657 -0.007707347 0.047192212 -0.023617342 -0.015801033 -0.092899635
0.12907544 0.05396672 -0.03733864 0.047835164 -0.10843418 0.07798602 -0.07391454 0.019699095
0.1147602 -0.1083716 -0.07722694 0.027181786 -0.08277755 -0.1333795 -0.036355563 -0.015921474
-0.0022451133 0.06795527 0.023713434 0.0844882 -0.35265875 -0.15813018 0.18939885 0.010496775

fc2.bias f4 [50]
00000000: 7ac6 fc3d e153 b3bd 04b0 f4bd c0de bb3e
00000010: f2a7 86bd 41c2 22bd 1cda b2bc 8ced c73d
00000020: 57eb 913d f7f8 9dbd b003 2fba 7ed3 c7bd
00000030: f01e ab3b 8cd3 aebc 71b7 843e ed14 b23d
00000040: 9656 973b 8ceb c13d 84a2 5bbe 57b7 5b3e
00000050: a597 5dbd e7fa 933c a099 2d3e 3ebd d73d
00000060: 8e9f 663b 47fa 16be 7099 e23c 05a2 613d
00000070: 7f9f 753e c3ae 683e 4342 00be d710 373e
00000080: 5be3 eabd 6970 003d 4825 e93d 6057 b83d
00000090: 385e 51bd 54b7 963d 7b8f 7838 a25c 74bd
000000a0: 779b dabd 418f 9dbd 8b71 a6bd 815b 813d
000000b0: 1d65 a43c b47d aebc 9de6 ffbd 0d99 c5bd
000000c0: 6cdc 373e 998c 13be
0.12342544 -0.08756233 -0.11947635 0.36693382 -0.06575002 -0.039736036 -0.021832518 0.09762105
0.07124966 -0.07713502 -0.00066762697 -0.09757136 0.005222194 -0.021341108 0.25921205 0.086953975
0.004618476 0.09468755 -0.21448714 0.21456657 -0.054099698 0.018063975 0.16953135 0.10534142
0.0035190317 -0.1474391 0.027661055 0.055086154 0.23986624 0.22722916 -0.12525277 0.17877518
-0.11469146 0.031357203 0.11384064 0.090010405 -0.051115245 0.07359186 5.9261434e-05 -0.059658654
-0.10674184 -0.07693339 -0.08127125 0.06316281 0.020067746 -0.021300174 -0.12495158 -0.09648333
0.17955178 -0.14409102

fc3.weight f4 [10, 50]
00000000: 077b 29bb b483 783d db8c 063d 7324 33bb
00000010: 083f c03d 54c2 d83d 1e55 8abd 0189 d33d
00000020: f691 7ebd 9419 cbbc 806b c6bd dab9 ea3d
00000030: 4629 6c3d 9ce0 f93c aab5 cd3d 4b0b 963d
00000040: 95ae abbd b2ef ddbd bf09 99bd 573b 0dbe
00000050: c786 99bd b1b0 80bd 3110 de3d 210a 45bc
00000060: 0232 bdbc f211 4fbd 6a90 43bd aa7b 04bd
00000070: 45c9 143d 1875 cfbd bacc de3d 0857 8abd
00000080: 420a 07bd f20b de3d 5730 ce3c da66 b5bd
00000090: fd28 c9bd 3f32 c33d c0ea d63d 73de 00be
000000a0: 5a36 5bbd bc2b 073e 5aa1 e1bd 5eaf c5bd
000000b0: 5cc6 92bd c3a1 a93d e927 09be f0cf d03d
000000c0: 14f0 ba3d 4e69 a33d e19f ff3d c20d ed3d
000000d0: 70e9 8fbd 4167 803d 70e8 2e3d c8f7 563e
000000e0: 40f3 cebd c8a1 3c3e 8c27 773e 0a8b b7bd
000000f0: 1454 48bd 93a4 0b3e fcdd 3cbd 562b cb3d
00000100: 494a 193e 7127 d03d 1266 fe3d ad6a bbbd
00000110: 0d16 353c b693 04be 4b48 bdbd 40b1 c23d
00000120: 55c0 16be b69e e53d 3e2c c8bb d8e9 543d
00000130: 486d 1c3d efb1 d1bd 0daf 93bd 7dfd 1dbe
00000140: 4674 98bd 2308 b13d cacb e03d ea41 053e
00000150: a14b 393e 6165 2d3e 4aad b5bc 674c afbd
00000160: 2c4a 793d 793c c1bd ca9b a43d c614 183d
00000170: e95b b2bd 8ced 063d 0e4f e8bc de4b 993d
00000180: a22e ff3d ad46 da3a 9e73 1f3e cc6c 6f3e
00000190: 1183 313e 761c b03d dca4 d83d cb6a 683e
000001a0: 2e14 aa3d 8bdb 013d e401 5f3d 8689 34be
000001b0: a8c9 31be 51f9 5ebe d75c 3f3e 75ab 07be
000001c0: 1f78 0b3d 36f8 9a3e 7d2d 663e dce8 c43d
000001d0: 58a3 013e 0595 e0bd f6b1 d33a 912b 713d
000001e0: 71bc e8b8 d6e5 093e adaa 5a3e 7a70 353e
000001f0: 7181 13bd d817 e63d 6cfa efbd 1cbf fb3d
00000200: 87aa 98bc 28f3 253e 2052 66bc 68e9 c2bd
00000210: 1c2f d33d 40ea 083e 0411 b43e 4254 993d
00000220: e0d3 25bd 8df7 1fbe 2797 eb3d a385 90bd
00000230: 5c42 a5bd 43ec c1be e607 be3b 9a11 863e
00000240: cfde 7d3e 706f a1bc 7438 613d 76ef a83d
00000250: a817 8d3c 760c 863e d9ca a0ba 46bd 58bd
00000260: 0001 ab3c 035d c8be a140 a23a 1fbf db3d
00000270: 1522 e3bd 45e6 ad3d 50d2 4a3e 37bd 073e
00000280: 62a2 a43d 23de babd ef62 6dbd 6979 373e
00000290: b5eb 9abc 208a 06be 5b33 213e 1063 a2bd
000002a0: 0510 1fbd 3e39 7c3d d509 8ebe 2c52 f03d
000002b0: e33f 153d 618b 793d c0d4 003c 65f7 b2bd
000002c0: b059 abbc c595 c53d a150 42bd 7458 dc3c
000002d0: 84e8 943d d6c0 633e 0040 db38 ff4b 363d
000002e0: 84a3 933e d523 0f3e 48a5 a53d ef9a eabd
000002f0: 1e8f dfbb fe4e da3d 9603 5abd 3ca2 5dbb
00000300: 5901 2b3d 1180 f1bd db3b 873d 2d30 42bd
00000310: 0a50 8d3d 5015 503d 4c50 463e 0ce0 b13e
00000320: 607a dabc 47d1 0f3e d23a 3d3d 23d1 b9bd
00000330: 289a a4bc de4c 07be 7de2 533d 079e 243d
00000340: 9356 8abd 38e7 febd d9d9 043e f828 d7bc
00000350: d7be 92bd 38c7 523d ff80 cf3d 5cfe d1bd
00000360: 697f a33d a625 ffbc 74fa b43d 7a44 7abd
00000370: 571b 90ba b06f 92bc 19c3 6ebd 01ff 04be
00000380: a29e f8bd 00d0 7938 e04f 4fbc 3585 af3d
00000390: 08cf 223b 2153 2e3d 08c0 02bd 3387 f7bd
000003a0: 4cab b33d 56ec 2ebd 0e33 c3bd d8a6 793d
000003b0: 0048 04be 5872 10bd 40ec 403d 6a45 2eba
000003c0: a2c3 823d 7220 d53d 232b f4bd e543 d4bd
000003d0: e61b a8bd d79f 023e d505 02be 1854 a2bd
000003e0: 3f4a d93d 002b bc3b e6be f83b b642 1ebd
000003f0: fa4f cfbd 05b7 c7bd b765 73bc 7245 92bd
-0.0025860684 0.060672477 0.032849174 -0.0027334958 0.09387022 0.1058394 -0.06754516 0.10328866
-0.062150918 -0.02479247 -0.09688473 0.114612296 0.05765655 0.03050261 0.10044415 0.07326373
-0.08382908 -0.10836734 -0.07472562 -0.13792168 -0.0749641 -0.06283701 0.10842932 -0.012026341
-0.023095135 -0.050554223 -0.047745146 -0.032344498 0.036324758 -0.10129756 0.10878892 -0.06754881
-0.032968767 0.10842122 0.025169535 -0.08857508 -0.09822271 0.09531068 0.10493994 -0.12584858
-0.05351863 0.13200277 -0.110171035 -0.09652589 -0.0716674 0.08282807 -0.13394131 0.10195911
0.091278225 0.0797907 0.12481666 0.1157489 -0.070269465 0.06269694 0.04270214 0.20992959
-0.1010499 0.1842109 0.2413618 -0.089620665 -0.04890831 0.13636999 -0.04611014 0.09920375
0.14969744 0.10163773 0.12421812 -0.09151206 0.011052621 -0.12946972 -0.092423044 0.09506464
-0.14721806 0.11211912 -0.0061087897 0.051980823 0.038190156 -0.10239016 -0.07211123 -0.1542873
-0.074440524 0.0864413 0.1097637 0.13013425 0.18095256 0.16933204 -0.022177357 -0.085594945
0.06086175 -0.09435362 0.08037527 0.037129186 -0.08708937 0.032941386 -0.028358009 0.07485174
0.124600664 0.0016653143 0.15571448 0.23381346 0.17335154 0.085991785 0.105783194 0.22696988
0.0830463 0.031703513 0.054445162 -0.17630586 -0.17362082 -0.21774794 0.1868776 -0.13249
0.034050103 0.30267495 0.2247829 0.09614727 0.12659967 -0.10965923 0.0016151059 0.05887944
-0.00011097722 0.13466582 0.2135417 0.17718688 -0.036012117 0.112350166 -0.11717686 0.122923106
-0.018636001 0.16206038 -0.014057666 -0.09517175 0.1031172 0.1337061 0.35169232 0.07486774
-0.040485263 -0.15621777 0.115034394 -0.07056739 -0.08069298 -0.37875566 0.0057992814 0.26185304
0.24792026 -0.019706458 0.05498548 0.082487985 0.017223194 0.26181382 -0.0012267485 -0.05291488
0.0208745 -0.39133462 0.001237888 0.10729813 -0.11090485 0.08491186 0.1980679 0.13255773
0.080387846 -0.091244005 -0.05795568 0.17917408 -0.018911222 -0.13138628 0.15742247 -0.07929051
-0.038833637 0.061578028 -0.27741876 0.11734423 0.03643788 0.060923938 0.007863224 -0.08738593
-0.02091679 0.09647707 -0.047440175 0.026897646 0.07270911 0.2224153 0.00010454655 0.04450607
0.2883569 0.13978513 0.080881655 -0.114553325 -0.006822481 0.10659598 -0.053226076 -0.0033818623
0.041749332 -0.11792005 0.066032134 -0.047409225 0.06900032 0.050801575 0.19366568 0.34741247
-0.026669681 0.14044677 0.046198674 -0.09073093 -0.020093039 -0.13212916 0.051729668 0.04018977
-0.06754794 -0.12446445 0.12973727 -0.026264653 -0.07165306 0.05145952 0.10132026 -0.10253593
0.07983286 -0.031145882 0.08836833 -0.06110046 -0.0010994476 -0.017875522 -0.05829153 -0.12987901
-0.12139632 5.955994e-05 -0.012653321 0.08570329 0.0024842639 0.042559747 -0.031921417 -0.12086334
0.08772907 -0.042705856 -0.09531222 0.06095013 -0.12918091 -0.035265297 0.047100306 -0.0006647917
0.0638497 0.10406579 -0.1192229 -0.10364512 -0.08208446 0.12756287 -0.12697537 -0.07926196
0.106098644 0.0057424307 0.0075911162 -0.03863784 -0.10122676 -0.09751705 -0.014855794 -0.07142152

fc3.bias f4 [10]
00000000: 1b1a a1bc face b7bd 4bf4 273d dbd9 1fbe
00000010: 0de6 763b d7eb 663d 1b9e 0cbe cb6b 493d
00000020: 00d4 7e3a 40cd 633e
-0.019665768 -0.089750245 0.04100446 -0.15610449 0.0037673742 0.05637726 -0.13732187 0.049175065
0.00097209215 0.22246265

fc4.weight f4 [10, 10]
00000000: e818 95bd eecb 8c3e 2907 2d3e 7613 d6be
00000010: b228 713e cfd6 683d fe61 99be edb0 9c3e
00000020: 08f4 263e 5d00 a3be b0d0 113e ab02 19be
00000030: b2ed 95be 69d1 3cbd 6f38 3e3e 95d9 d93d
00000040: e155 8a3e e3c5 123e be17 703e 09af 4bbd
00000050: 0a95 6b3e 0319 c93e 9cb8 983e 05f2 723e
00000060: 06c1 34bc f2d7 87bd 6af0 4a3e 4ee0 373c
00000070: 870c 9c3e f05e bfbe a729 873e 0518 443d
00000080: a9f1 bcbd d515 863d 34ec 8e3e f909 aebe
00000090: 3fed 88be 09d6 8e3e 7d75 8e3e 6bc8 9fbe
000000a0: 44f2 02be 1174 2f3e 4477 57bf 2b8b 93bd
000000b0: 3d66 933e 6b59 2a3e 78f5 23bd d681 493e
000000c0: af36 0abe 6979 663e 875c a63d 264e 203e
000000d0: bf87 04be 8c0a 013e 85fd e53d 9f5d 2abe
000000e0: 74cf 4fbe 444d 1f3d 68ee 39be 8612 8abe
000000f0: d63e 583e d5c4 8fbe b546 a0be 3e0c 88bd
00000100: c027 61bc e8f0 b03d 9817 593d a8f2 61bd
00000110: e060 e13d ed3e 34be e8b2 77bd 5446 a1be
00000120: 8065 b83e 20b9 dbbb 9c8c 8e3d 9b1b 2fbf
00000130: e2e0 d8bd b803 39bd 7088 1b3d c8f2 1a3f
00000140: 5424 7a3d 9ca4 9a3e 529b 863d 6b72 b63d
00000150: 0c9c 32bd b5c9 c13e 7c7c 49be dc7f 363e
00000160: e888 93be eab2 d1bd cf14 24be cbbb 19be
00000170: 46d2 0bbe 378c b83e 034c 65be e598 193e
00000180: 003f 443d 04b7 8f3e b0a9 f03d fb22 e2bd
-0.07280141 0.27499336 0.16897263 -0.41811723 0.2355068 0.056845482 -0.29957575 0.30603734
0.16304028 -0.31836215 0.14239764 -0.14942424 -0.2928291 -0.046098147 0.18576215 0.106372036
0.27018645 0.143333 0.23446557 -0.049727473 0.23006073 0.39276895 0.29828346 0.23725136
-0.0110323485 -0.06632985 0.19818273 0.011222912 0.30478308 -0.3737712 0.26398966 0.04787447
-0.092257805 0.06547133 0.27914584 -0.33991984 -0.26743504 0.2789767 0.2782401 -0.31207594
-0.1278773 0.1713412 -0.8416636 -0.072042786 0.2878894 0.16635673 -0.04002902 0.19678435
-0.13497423 0.22507252 0.08123117 0.15654811 -0.12942408 0.1260168 0.11229996 -0.16637276
-0.20293981 0.038892046 -0.18157351 -0.26967257 0.2111772 -0.28079858 -0.31303945 -0.0664296
-0.013742387 0.08639699 0.053001016 -0.055163056 0.110048056 -0.1760213 -0.060473353 -0.3149897
0.36014938 -0.006705418 0.06960413 -0.684015 -0.10589768 -0.045169562 0.037971914 0.60526705
0.0610698 0.30203712 0.06572594 0.08908542 -0.04360585 0.37849203 -0.19676393 0.17822212
-0.2881539 -0.10239203 -0.16023563 -0.15013044 -0.13654432 0.36044475 -0.22392277 0.14999731
0.047911644 0.28069317 0.11751115 -0.11041828

fc4.bias f4 [10]
00000000: b5ca 00be 6aa2 3b3e 5a03 1cbe 55d9 1b3e
00000010: 75d4 8cbe 7d95 9f3e d0d9 19be 6ce3 14be
00000020: dfe4 bf3d a659 263e
-0.12577327 0.18323675 -0.15235654 0.15219624 -0.27505842 0.31168738 -0.15024495 -0.1453988
0.093698256 0.16245136

out_x.weight f4 [2, 10]
00000000: 79a9 3a3d bcc6 493e 75d8 57bf 6b67 403c
00000010: 0142 00be 4604 753d 1039 6e3d bbae 033f
00000020: e318 89be 6d11 35bd 0f81 91bf fcac cd3c
00000030: 705e 90be a030 47be 56e1 903f d95a cd3e
00000040: 90f3 49be eb27 153f 8fe2 31be 5597 063f
0.045571778 0.19704717 -0.8431466 0.011743407 -0.12525178 0.05981853 0.058159888 0.5143849
-0.267768 -0.04420607 -1.136751 0.0251069 -0.2819705 -0.19452143 1.1318767 0.40108374
-0.19721818 0.58264035 -0.17371581 0.52574664

out_x.bias f4 [2]
00000000: 5815 3b3e 928e de3d
0.1826986 0.10867037

out_y.weight f4 [2, 10]
00000000: 86e3 5c3e 80f0 9ebd cd37 a5be 379e 2d3e
00000010: 3647 2fbe 9066 abbe 80d8 fb3d 155d 04bf
00000020: 870b 513e 14e4 f93c db3c 90bf c9b1 cd3c
00000030: 5a93 c03d 186f 343e 1051 3f3e dfbb b4be
00000040: 2255 623e c220 3e3d e92e b4be ca09 60be
0.21571168 -0.077607155 -0.32269135 0.16954885 -0.17117009 -0.33476686 0.122971535 -0.5170453
0.20414554 0.030504264 -1.1268572 0.025109189 0.09403105 0.17620504 0.18683267 -0.35299584
0.22102788 0.04641796 -0.3519204 -0.21878734

out_y.bias f4 [2]
00000000: a55b 233e 4cef 343e
0.15952928 0.1766941

out_theta.weight f4 [1, 10]
00000000: 6e12 d6bd d7b6 8dbd 45e3 0cbd d882 dbbc
00000010: 28d6 593b 2d0b 333e 64c9 aabd e597 34bb
00000020: 5217 a33d f0b5 09be
-0.10452734 -0.069196396 -0.03439643 -0.02679579 0.003323922 0.17484732 -0.083391935 -0.0027556357
0.07963432 -0.1344831
