models/contact_net_v1_unclipped.pt (torch, 20391 bytes, 15 tensors)

fc0.weight f4 [10, 3]
000000 ae d9 6b be 4a 4a e2 be 5d e1 a2 3e bb 89 b7 3d
       -0.23032257 -0.44197303 0.31812564 0.08961817
000010 08 4b b1 be 19 ed 83 3e a4 ea 48 3e 6c 4b f7 be
       -0.34627557 0.2576683 0.19620758 -0.4829973
000020 e2 c0 65 bd 87 4a 65 bf ab 4d 8c 3d a4 fe 02 3e
       -0.05609215 -0.89566845 0.068507515 0.1279245
000030 db 42 9b 3f 8b 4e be 3e 89 7d 0d 3f 01 f1 7f 3d
       1.2129778 0.371693 0.55269676 0.0624857
000040 2b d4 10 bf 1d 60 1b 3c 40 2a 54 3e b4 3a 8f be
       -0.5657374 0.009483364 0.20719242 -0.27974474
000050 ec 57 fc be 39 92 fa be cb 2f 01 3f 91 09 f8 bd
       -0.4928583 -0.48939684 0.5046355 -0.121112
000060 27 7c b6 3f 04 ad 70 3e 08 64 d4 be e0 a3 3f be
       1.4256638 0.235035 -0.41482568 -0.18714857
000070 fa 96 64 3e 64 5d a1 3d
       0.22323218 0.07879141

fc0.bias f4 [10]
000000 1d 2b 0d 3d 2e f9 76 be e9 dc f9 bd d2 e6 88 be
       0.034464944 -0.24118492 -0.122003384 -0.26738602
000010 64 a3 f4 be 4b a2 e8 be 18 f9 6f 3f c4 5c c7 3d
       -0.47780907 -0.4543632 0.9373946 0.097344905
000020 8f 67 34 be 34 c9 7c 3e
       -0.1761763 0.24686128

fc1.weight f4 [50, 10]
000000 7f b5 55 3d b6 22 9b 3d 21 80 cb bd 8d 67 d4 bd
       0.05217504 0.0757498 -0.09936548 -0.10371313
000010 87 92 bd be 1c 42 29 bd 4e 03 be bc 7a 57 a4 3e
       -0.37025854 -0.041322812 -0.023194935 0.3209799
000020 84 73 9e bd 6d 77 82 bd c3 17 c3 bc 52 f7 68 3e
       -0.077368766 -0.06370435 -0.023815041 0.22750595
000030 41 a0 59 be fd 99 76 3e 72 31 8e be 3e 70 a2 be
       -0.21252538 0.2408218 -0.277721 -0.3172626
000040 99 ce 83 3e f9 5b fe bb 3d cf c6 be 9f c7 28 3d
       0.2574356 -0.007762429 -0.38829985 0.041206
000050 c0 b8 81 3c 5f 4d 60 3d 30 c8 96 3d fb a4 03 bf
       0.015835166 0.054761287 0.073624015 -0.51423615
000060 67 d4 90 3c 90 46 db bd b4 87 2b 3f 02 d5 82 3d
       0.017679406 -0.10706818 0.6700394 0.06388284
000070 4c 20 95 3e d3 33 89 be 50 2d d7 bc 33 f9 60 be
       0.29126203 -0.2679735 -0.026266724 -0.21970062
000080 02 b4 45 be 82 22 5e 3e f0 9f 8a be a8 e9 0a bd
       -0.19306949 0.21692851 -0.27075148 -0.03391424
000090 fe 47 1f 3f ca 03 9a 3e dd 4f 44 be c0 a6 3f be
       0.62219226 0.30081016 -0.1917109 -0.18715954
0000a0 97 98 4c 3e 6b a6 37 bd 7f bd 17 be fa d0 1a be
       0.19980083 -0.044836443 -0.14818381 -0.1511878
0000b0 3b 5f 8b 3e 5f bb b8 bd a3 5a 57 be 0a d8 40 3e
       0.27221093 -0.09020113 -0.21030669 0.18832412
0000c0 95 73 0f 3e 0f ad c9 3b 45 3c 79 3e 07 75 51 3e
       0.14008935 0.0061546634 0.24339397 0.20454799
0000d0 6f d7 f2 bc 09 79 10 3e cf 6d 6f 3e 87 5c fa 3d
       -0.029643742 0.14108671 0.23381732 0.122246794
0000e0 76 82 23 bd 7e e8 81 3e b5 27 03 be cc 5f 3f be
       -0.03991934 0.2537269 -0.12808116 -0.18688887
0000f0 5e e3 84 be 37 22 54 3e 8e f7 10 be 7e 67 1c 3e
       -0.25954717 0.20716177 -0.14156935 0.15273854
000100 51 51 1e 3e 5a f2 4d 3e fa 2f b8 3e 4e f1 de 3d
       0.15460707 0.20111981 0.35974103 0.10885869
000110 69 2a ef bc 1c ac 27 be ff 7d 4a be a5 73 32 bc
       -0.029195027 -0.16374248 -0.19774626 -0.01089183
000120 cd d4 80 bd d9 1a 56 3d 28 3b de bd 2c a3 5c 3e
       -0.062905885 0.052271698 -0.10851127 0.2154662
000130 12 44 cb bd 89 34 68 be f0 3c 55 3d b3 da a4 be
       -0.09925093 -0.2267629 0.052060068 -0.32198104
000140 29 00 a0 3d a4 9d c1 be 19 11 fd 3d 40 97 31 be
       0.078125305 -0.37815583 0.12356777 -0.17342854
000150 53 fb 9d 3e 84 02 57 be 2d c2 b8 be 42 90 44 3e
       0.30855808 -0.20997053 -0.36085644 0.19195655
000160 38 27 5c be 24 db fb 3d 92 2a ae 3d 64 39 b4 3d
       -0.21499336 0.12297657 0.085042134 0.08800009
000170 62 2d 60 bd cf 41 79 3e be d8 1b bf 3c 92 72 be
       -0.05473078 0.2434151 -0.608776 -0.23688596
000180 47 b1 33 be 55 18 89 be 8c b0 9c be a2 95 46 3d
       -0.17548095 -0.26776376 -0.30603445 0.048482545
000190 78 79 5c 3d 05 f8 92 be 70 15 7b bd cc 7b 66 be
       0.05382678 -0.2870485 -0.06129974 -0.22508162
0001a0 f2 b4 05 bd 8f eb 9d 3e 50 b2 67 be 63 12 af 3c
       -0.032643266 0.3084378 -0.22626615 0.021371072
0001b0 06 84 83 3e 6e be 7a 3e 9e 6c 8a be 13 f6 20 bb
       0.25686663 0.24486706 -0.27035993 -0.0024560734
0001c0 94 b1 f4 3d e1 2e 16 3e c1 10 b5 3d 30 4e e2 3c
       0.11947933 0.1466632 0.08841086 0.027625173
0001d0 45 46 40 3e 57 cd e8 be 66 b4 92 3e d4 81 39 3d
       0.18776806 -0.45469162 0.28653258 0.04528983
0001e0 b9 e3 59 3e ab a5 31 be 5b d4 5d bd e6 7b b4 3e
       0.21278276 -0.17348354 -0.054157596 0.35250777
0001f0 0d c1 f7 b9 32 d4 37 be 6d 73 57 be e2 19 55 3e
       -0.00047255345 -0.1795204 -0.21040125 0.20810655
000200 a9 5c 98 bf e6 ea 65 bd 5d 22 96 3e 8c 8a 85 3e
       -1.1903278 -0.05613222 0.29323092 0.26082265
000210 eb a9 1f be fb 9d 11 3e 6f 57 2b 3e ba 06 23 be
       -0.15592162 0.14220421 0.16732572 -0.15920535
000220 3b ad 24 be af d2 ae be 03 36 53 be e5 ad 9d 3d
       -0.16081707 -0.34145114 -0.20626073 0.076991834
000230 22 85 3c 3c 22 1c 2b 3e 94 f9 3d 3e 17 63 20 bd
       0.011506351 0.1670995 0.18552238 -0.039157
000240 a4 4b 99 bd 69 62 3f bd b3 b2 a8 3e b9 35 91 3e
       -0.074851304 -0.04672471 0.32948837 0.283613
000250 b9 18 08 be 4f 9c 9e be 41 0e 5a b9 56 90 5e be
       -0.13290681 -0.3097863 -0.0002079541 -0.21734747
000260 71 52 9c be 1c 49 9d 3e 39 b7 21 3e b6 19 6d be
       -0.30531648 0.3071984 0.1579255 -0.23154339
000270 1c 5a 96 3e e7 15 96 3e a2 01 88 bc 53 a2 85 be
       0.29365623 0.29313585 -0.016602341 -0.26100406
000280 d8 3b 04 3e d4 7c 4c 3e 6a b5 9c be 8f b7 17 3e
       0.12913454 0.19969493 -0.30607158 0.14816116
000290 b3 7d 94 be e5 6a 34 be 4f 11 27 3d 03 23 88 3e
       -0.2900215 -0.17618902 0.04078799 0.26589212
0002a0 d6 4a 83 be e2 b3 14 bb 5c b8 6b be a0 e4 dd 3d
       -0.25643033 -0.0022690226 -0.23019546 0.108346224
0002b0 0d c2 88 be f2 2e 96 be 79 cf cf bc a9 fc a0 be
       -0.2671055 -0.2933269 -0.025367485 -0.31442764
0002c0 b4 7e ee bd bb 26 76 3e ce 88 9b bc 22 12 d7 bd
       -0.116452605 0.24038212 -0.018986132 -0.105015054
0002d0 db 8f d9 be 86 13 d8 3d 6d 5e 46 3d 1f 88 e3 3e
       -0.42492566 0.10550599 0.048429895 0.4443979
0002e0 90 27 89 be 12 d6 06 be 2c c1 6f 3e 11 dc 3e 3e
       -0.26787996 -0.13167599 0.23413533 0.18638636
0002f0 e1 a6 99 be bf f3 45 3e 79 9c 86 3e 9d 42 b8 3e
       -0.3001013 0.19331263 0.26291254 0.35988322
000300 41 75 b2 be 1c 97 90 be 40 42 28 3e d0 b0 7a be
       -0.34855083 -0.28240287 0.16431522 -0.24481511
000310 b9 0b 10 3d bb 8d 96 3d 85 7d b6 3e 10 5d 21 be
       0.03516743 0.07351252 0.3564264 -0.15758157
000320 4a 9c 84 3e 24 5b ac bd 74 36 ea 3d 1b b7 f4 bd
       0.2590049 -0.08415821 0.11436167 -0.11948987
000330 bc 12 0f 3e 0d d8 a4 be b0 35 97 bc 2f 07 5c be
       0.1397199 -0.32196084 -0.018458217 -0.21487115
000340 7b ad 31 be 5a 27 a4 3e 79 0f 0e be c2 98 67 3e
       -0.17351334 0.32061273 -0.1387309 0.22616866
000350 16 e8 f3 bd bb fb 90 3e 2e 1c 0e 3e ad 20 9c be
       -0.11909501 0.28317055 0.13877937 -0.3049368
000360 3a 57 98 3d 2a ab 83 bd 13 84 5a 3e 6d 71 95 bd
       0.07438512 -0.06429131 0.21339445 -0.07297025
000370 e1 14 3b 3e 39 80 7c be 1f a8 2c 3d 35 55 f0 bd
       0.18269683 -0.24658288 0.04215252 -0.11735002
000380 52 78 2d 3e 71 cd 23 bc cf 81 7b 3d 44 d6 c6 bd
       0.1694043 -0.0099977115 0.061403092 -0.09708837
000390 e5 da d5 bd 10 ac 94 3d ff 8b 10 be bb 83 8b be
       -0.104421414 0.07259381 -0.14115904 -0.2724894
0003a0 99 24 8d 3e 19 0b 11 bd 15 a1 24 be 10 51 cc 3d
       0.27566984 -0.035410974 -0.16077073 0.09976399
0003b0 82 90 91 be 0c 5c 6c bc 33 da 42 3e a0 5e a5 be
       -0.28430563 -0.014426243 0.19028549 -0.32298756
0003c0 58 6f b6 bd cc a5 89 bd 10 0d fe bd c8 94 b7 bd
       -0.08907956 -0.06721076 -0.12404835 -0.08963925
0003d0 39 90 b4 bd bc 79 56 be 55 3e e6 3e 39 be ac 3e
       -0.08816571 -0.20944875 0.4496943 0.33738878
0003e0 6b b1 f4 be 1c 13 0c be 1d 32 4b be db d6 18 be
       -0.4779161 -0.13679165 -0.19843335 -0.14925711
0003f0 e6 69 30 be 6e 57 4a bf 6c c0 01 3e 20 01 3b bd
       -0.17227897 -0.7903966 0.1267106 -0.04565537

fc1.bias f4 [50]
000000 b1 5c 4b be 38 66 15 3f 34 fa 14 be e2 7c 1e 3b
       -0.19859578 0.583591 -0.1454857 0.0024183323
000010 19 a6 8b 3e ab 9a 0d 3e a1 81 f3 bc 1a 2d 72 3e
       0.2727516 0.13828532 -0.029724898 0.23650017
000020 2b 78 b6 3e 5b 84 9f 3e d0 bc ce 3d 9c 23 05 bf
       0.35638556 0.31155667 0.10094607 -0.5200746
000030 c5 c0 4a 3f ee 07 6f be fc 04 63 be a9 6c 64 3e
       0.7920039 -0.23342869 -0.2216987 0.22307076
000040 c9 cb 9e 3d b2 53 0f 3e 54 d4 a9 bd 0b d2 91 3c
       0.07753713 0.13996771 -0.082924515 0.017800352
000050 99 89 aa 3e 6c 55 8d bb e5 34 e6 bd 6a 7d c3 3d
       0.33308104 -0.0043131616 -0.112405576 0.09545405
000060 90 72 fc bd 2b 61 5c bc 0e 82 1b 3e 63 80 2d bd
       -0.123265386 -0.013450901 0.1518633 -0.042358767
000070 02 c6 ac be 3f cb 2f 3e f0 e3 26 be d6 68 21 3e
       -0.33744818 0.17167376 -0.16297889 0.15762648
000080 eb d7 97 3e a0 b8 2d be 19 dc 8c 3e 4f 4a ad be
       0.2965692 -0.1696496 0.2751167 -0.33845755
000090 55 82 9b be 8b fa 96 3e 21 2a f1 bd a6 d4 c4 3e
       -0.30372873 0.29488024 -0.117756136 0.38443488
0000a0 7c 0d f7 bd bd 70 14 3e e9 07 88 3e fb bf 03 3e
       -0.12063119 0.14496131 0.26568535 0.12866203
0000b0 24 69 65 3e 2b 7e 76 3c ae 71 38 3e 60 dc 8a 3e
       0.22403389 0.015044729 0.18012115 0.27121258
0000c0 c7 22 68 bf 1d cf 7c be
       -0.90678066 -0.24688382

fc2.weight f4 [50, 50]
000000 c8 24 2b 3d a9 35 ca 3d a1 85 f7 be b8 cc a1 3d
       0.041783124 0.09873516 -0.48344138 0.07900375
000010 ab 6a a0 bb 21 d8 05 3e af 96 a5 3d c7 d3 1f 3d
       -0.0048955283 0.13070728 0.08085381 0.039020326
000020 60 7a 47 3d db 13 b7 bd 17 24 06 be 47 c2 dc bd
       0.04870069 -0.08939334 -0.13099705 -0.10779243
000030 90 96 f7 3d 55 00 06 be 9b 4a 70 3d ef e9 07 be
       0.120892644 -0.13086064 0.0586649 -0.13272832
000040 36 97 e3 3d 1e f3 20 be 19 0d da bd d1 04 79 be
       0.111128256 -0.15717742 -0.106470294 -0.24318244
000050 db 99 46 be d8 c5 e4 bd 0f 72 0d 3e ef 2d 44 3b
       -0.19394629 -0.11170548 0.13813041 0.0029934605
000060 1a 8f 19 3e fe 39 c6 bd b4 be ea 3d ba 7b dc 3c
       0.14995995 -0.0967903 0.11462155 0.026914466
000070 06 c7 18 3d 1b 47 3b be f8 54 42 3d 41 06 99 bd
       0.03729918 -0.18288843 0.047444314 -0.07471896
000080 08 81 c8 bd a2 3c ef 3d 44 eb 10 be 3a 0c ac 3d
       -0.09790236 0.11681487 -0.14152247 0.084007695
000090 73 38 0c be 9e ac ca bd 41 da 42 3b ac 40 e9 bd
       -0.13693409 -0.09896205 0.002973214 -0.11389288
0000a0 73 22 01 be ec fc d3 bd a4 c6 d2 3d 1a 26 61 bd
       -0.12610798 -0.103509754 0.10291794 -0.054967977
0000b0 f7 cb cf 3d d6 91 97 bd ec 55 10 3d dd 19 b9 bd
       0.10146325 -0.07400863 0.03523819 -0.09038136
0000c0 45 14 86 3c e8 f6 c1 bd 3b 14 10 3e 5f ed b1 3d
       0.016367087 -0.09470922 0.14070217 0.08687853
0000d0 4e 21 a9 3d 38 79 98 bd a3 10 7a 3d 18 98 3e bd
       0.082583055 -0.07444996 0.061051022 -0.046531767
0000e0 ce d6 15 3e 18 7c 63 bd 30 57 f7 3d f1 cd a2 bc
       0.14632723 -0.055538267 0.120771766 -0.019873591
0000f0 1b e4 ea 3d 77 47 13 3e e0 c5 8b bd e4 fc da 3d
       0.11469289 0.1438273 -0.06824851 0.10692766
000100 4e c2 7b 3d a8 c5 ac 3d e7 ef 24 3c dd 97 9f 3a
       0.0614646 0.084361374 0.010066963 0.0012175996
000110 ba 81 60 bd ae e2 04 3e a5 da 87 3d f9 47 f7 bd
       -0.054811217 0.12977096 0.066335 -0.120742746
000120 dd 83 03 3e a8 e8 61 ba 61 7c 49 be c0 9b 09 3e
       0.1284327 -0.00086177373 -0.19676353 0.1343832
000130 c8 33 8b 3d 67 01 05 3e 14 24 3e 3d 5b ef 12 bd
       0.06796986 0.12988816 0.046421126 -0.0358728
000140 c9 01 78 3d f8 c6 92 3d 0e fd ac 3d cf d3 e4 bd
       0.060548577 0.071668565 0.08446704 -0.11173212
000150 9a 1c d2 bd 65 76 e0 bd f2 40 d2 bd 58 c7 f4 bc
       -0.102593616 -0.10960082 -0.102662936 -0.02988021
000160 c2 ca 82 3d e0 44 00 be cd 77 c9 bd aa 31 c6 bd
       0.06386329 -0.12526274 -0.09837303 -0.096774414
000170 9e 1a a6 3d e4 df 24 3c 66 8a 24 3d f9 0c 26 3e
       0.081105456 0.010063145 0.04017105 0.16215886
000180 64 c5 83 3d ce b7 56 3d 32 86 66 be 18 39 d5 bc
       0.06434134 0.052421384 -0.22512129 -0.026028201
000190 6c ec 2d 3b 00 f7 10 3e df f4 ee be 89 47 01 be
       0.0026538623 0.14156723 -0.46671197 -0.12624945
0001a0 0e ef 6c bd 55 a9 af 3d cc cc af 3d 58 c6 1a bd
       -0.057845168 0.085772194 0.08583984 -0.03778681
0001b0 5e e1 30 be 21 c8 a6 3c f3 62 8d 3d 00 ef 8c ba
       -0.17273471 0.0203591 0.06903639 -0.001075238
0001c0 27 ee 0e bd b1 05 61 bd b0 fd d3 bd f8 28 d8 bd
       -0.03489509 -0.05493707 -0.103511214 -0.10554689
0001d0 11 7a 1b 3d b6 73 81 bc de aa cb 3c 00 5c 9c bd
       0.03795821 -0.015802246 0.02486175 -0.07634735
0001e0 c4 ec 3c 3e dc 2f 40 bc c1 78 a9 bd 88 24 4a 3d
       0.18449694 -0.011730161 -0.08274985 0.049351245
0001f0 25 08 48 3d c0 e7 63 bc 73 e5 38 3d 97 85 0d be
       0.048835892 -0.013910234 0.045140695 -0.13820492
000200 ec 63 81 bd 9a 38 9a bd 7c ad 07 3e 5e 19 09 be
       -0.06317887 -0.07530327 0.13249773 -0.13388583
000210 b0 0d 7b 3c bc f0 11 3e 0f cc 03 3e 0e 41 a5 3d
       0.015323088 0.14251989 0.12870811 0.08069049
000220 14 bc 9c bd de 5f 4f bd 30 50 f1 3d 89 b6 47 3c
       -0.076530606 -0.050628535 0.11782873 0.012189516
000230 8e 6a a8 3b d1 fb 27 bd c7 6e 49 bc 54 9b c4 bd
       0.0051396554 -0.041011635 -0.012294478 -0.09599939
000240 1d fa 63 3d ce 6f 9c 3d ca 4e 0d bd ad b0 65 bc
       0.05565845 0.076385126 -0.034498967 -0.014019174
000250 74 11 f6 3e f6 8f e6 3d cf a5 c1 bd 45 a2 d1 bd
       0.4806019 0.11257927 -0.094554536 -0.102360286
000260 e4 2f 91 3d d8 cd e5 bc 92 12 01 bd fa 8b c1 bd
       0.070892125 -0.028052256 -0.03151185 -0.094505265
000270 b4 95 12 be 7c 8f 8e bc 9d f0 1a 3d 3b 23 fb bd
       -0.1431492 -0.017402403 0.037827123 -0.12262579
000280 27 e8 e4 3d 5a ac fd bd 42 95 87 bd a2 33 83 bc
       0.11177092 -0.12386389 -0.066202655 -0.016015831
000290 00 41 61 3a 7e f3 1b be 09 9b b5 bd 72 0b 04 be
       0.00085927546 -0.15229604 -0.08867461 -0.12894991
0002a0 2a e2 90 bd 03 b1 a9 3d 86 30 81 bc f2 8c bc 3d
       -0.07074387 0.082857154 -0.015770208 0.09206571
0002b0 a5 90 16 3d 88 54 fe bd 88 e3 a9 bd d3 4b cf bc
       0.036759038 -0.12418467 -0.08295351 -0.02530471
0002c0 e8 eb f9 bc 80 52 c6 bb 58 db d2 bd 40 e6 e8 bd
       -0.030507997 -0.0060523152 -0.10295743 -0.11372042
0002d0 82 c0 f8 3d ce ca fa 3d 7c 09 f7 bd 69 91 bf bd
       0.12146093 0.12245713 -0.12062356 -0.09353907
0002e0 1a 27 0f bc 48 4e d9 bd 3f cb 0f 3e 20 62 f5 bc
       -0.00873735 -0.10610634 0.14042376 -0.029954016
0002f0 7d ac 00 bd 00 b8 ec b8 b1 07 0e be 29 4e 3b 3d
       -0.031414498 -0.000112876296 -0.13870122 0.045728836
000300 52 43 ad 3d eb c3 84 3d 43 31 05 3e 18 42 30 3d
       0.08460106 0.06482681 0.13007073 0.043031782
000310 cf 8f 8d bd 36 d0 e2 3d 80 c0 58 bc 0a 76 f7 bd
       -0.06912195 0.11074869 -0.013229489 -0.12083061
000320 08 f9 42 bd 89 bc 0d 3e 41 49 32 be 5f 59 42 3c
       -0.047600776 0.13841452 -0.17410757 0.011862128
000330 dc e7 5c 3c 0b a8 fe bb 65 aa ec bb 7d 51 15 be
       0.013483014 -0.007771497 -0.007222461 -0.14581867
000340 41 90 4e bd f8 69 8e bd 84 85 06 3c fd 87 f9 3e
       -0.05043054 -0.06953806 0.008210544 0.48736563
000350 bc cd 2e 3e c1 a5 a3 bd 5c 9d 14 bb 9d 33 d5 bd
       0.17070669 -0.079905994 -0.0022676801 -0.10410235
000360 e7 5a 19 3e ec a2 21 3d 86 ed da ba 2c 5f 5e be
       0.14976083 0.039462015 -0.0016702868 -0.21715993
000370 53 8c 82 bd 86 25 d7 bc 83 65 1e 3e 21 fa 8b bd
       -0.06374421 -0.02626301 0.15468411 -0.06834818
000380 6c 2e e4 3d 73 ff 38 3e 9b 5e 3c 3e 2b 9b 1a 3d
       0.11141667 0.18066196 0.18395464 0.037745636
000390 69 28 78 3e 74 86 18 3a c1 76 c2 3d 1e e1 34 3e
       0.24234165 0.0005818375 0.09495307 0.17664
0003a0 e0 8f fe bd 79 ae 03 3e a5 2f e2 3d 56 1f 95 3d
       -0.12429786 0.12859525 0.11044244 0.072813675
0003b0 02 f8 eb 3d 40 2b 17 3d b1 59 90 3e 63 45 ec 3d
       0.11521913 0.03690648 0.2819343 0.11536672
0003c0 dc e5 22 bd 40 2f d9 bc e6 c4 ea 3d 50 6f 4b bc
       -0.039769992 -0.026511788 0.11463337 -0.012416676
0003d0 5e 02 af 3d 3a 9b 11 3e 56 e0 f2 bd f3 4d 93 bd
       0.085453734 0.1421937 -0.11859195 -0.07192602
0003e0 a1 88 18 bf d1 4f 06 be 71 a2 37 3e 35 20 49 3d
       -0.5958348 -0.13116385 0.1793306 0.04910298
0003f0 ac 4e 90 bd bc a0 14 3e 56 91 9f 3c 5f 3c 85 3b
       -0.070462555 0.1451444 0.019478481 0.0040660347

fc2.bias f4 [50]
000000 76 41 74 3d 34 aa ab bd e9 65 88 be 3c a4 8a 3d
       0.05963274 -0.08382073 -0.2664025 0.067696065
000010 0a 8a 7c 3e 16 94 d9 3d 18 39 c3 3c f6 17 a8 bd
       0.24662033 0.10623948 0.023830935 -0.08207695
000020 9d 91 8e bd b1 1f aa 3d d7 45 ae bd 39 19 f4 3d
       -0.06961367 0.08306826 -0.08509415 0.11918873
000030 20 bd 20 3d bc 87 97 bd cf 5b cc 3d 98 22 af 3d
       0.039242864 -0.07398936 0.099784486 0.0855152
000040 3f b1 7a bc 66 e2 4e 3a b5 47 41 3e 00 56 ce 3b
       -0.015301048 0.00078920124 0.1887501 0.006296873
000050 ec 36 32 bd fb e0 02 be 8c 92 42 bc 86 66 f5 bd
       -0.04350941 -0.12781136 -0.01187576 -0.119824454
000060 37 16 a5 3c cf 0e ea 3d 5a 36 fd 3e 6d 5d c0 3d
       0.020152194 0.11428606 0.4945553 0.093928196
000070 a7 c8 52 3d 34 ee fc 3c 81 90 b5 bc 13 07 26 3d
       0.05146089 0.030875303 -0.022163631 0.04053409
000080 c8 22 9b 3b c6 62 ee bd 24 8f 0e 3e e2 e5 c0 bd
       0.004734371 -0.11639933 0.13921791 -0.09418847
000090 56 70 c2 bd 4a 0c 07 be d8 c8 59 3d 40 4f ff 3d
       -0.09494083 -0.13188282 0.053170055 0.124662876
0000a0 e6 51 1d 3d f4 9c a8 3b f6 7f 81 ba fd ef a8 3d
       0.038408183 0.0051456634 -0.0009880054 0.08248899
0000b0 3b a8 06 bc 64 6d 9c bd 1c b5 4d bd 39 04 b1 3c
       -0.00821882 -0.07638052 -0.050221547 0.021608459
0000c0 77 2d 68 bd af ac 02 be
       -0.056683984 -0.12761186

fc3.weight f4 [10, 50]
000000 71 bf c8 bd 88 de e8 3d f1 fc 0f 3c 13 7f 88 bd
       -0.098021396 0.113705695 0.008788333 -0.066648625
000010 b4 17 07 be 6d 81 27 be ca 8e 1c 3d 0f 3c 56 bd
       -0.13192636 -0.16357966 0.03822211 -0.05230337
000020 a8 c4 db bd 5a c2 4a bd 99 7f 28 bd e7 f9 5d 3d
       -0.107308686 -0.049501754 -0.04113731 0.054193404
000030 6d c0 c5 bd 6c 80 f4 bd b8 34 af bd 0f 8e 90 bb
       -0.09655843 -0.11938557 -0.08554977 -0.004411466
000040 f7 4d d7 3c d7 3e 07 3e 66 c1 3e 3e d9 19 0b 3e
       0.026282294 0.13207565 0.18628463 0.13584079
000050 6d fc c4 bd 9a 5e 2d bd 1b 24 9b 3d 7d 82 40 3e
       -0.09618459 -0.042326547 0.07575246 0.18799777
000060 04 61 89 3e 3a 95 a5 bd 55 5b 02 be f4 a2 d7 bd
       0.2683183 -0.08085103 -0.12730153 -0.10529128
000070 f9 50 67 bd 2e ef 8e 3d b2 49 eb 3d 5f 52 dd bd
       -0.056473706 0.06979214 0.11488666 -0.10806727
000080 5e ec 7b 3d a3 5c 84 bc 74 90 04 3d c8 c1 fb 3c
       0.061504714 -0.016157454 0.032364324 0.03073205
000090 46 06 4a bd 5a bf 15 bd 1e 8b 97 3d 32 2f d4 3d
       -0.04932239 -0.03655944 0.073995814 0.10360564
0000a0 b8 ad f0 bc 77 12 49 3a 16 ba 14 3e 87 ff 8e bc
       -0.02937971 0.0007670293 0.14524111 -0.01745583
0000b0 bd b0 20 3e 70 45 3d 3d f6 af df 3d 6a 44 ec 3d
       0.1569242 0.0462088 0.10922234 0.115364864
0000c0 b5 24 62 3e e8 14 c9 bd 81 5f 10 3f d4 6a 2a 3e
       0.22084315 -0.09818441 0.5639573 0.16642314
0000d0 7c 0e 3f bf a9 11 86 bc a8 cf 41 3e 74 a3 aa be
       -0.74631476 -0.016365843 0.18926871 -0.3332783
0000e0 36 e2 ca 3d f0 d0 d4 3d 03 1e 9d 3e 47 dd fd 3d
       0.099064276 0.10391414 0.3068696 0.12395721
0000f0 06 c4 a9 3d 05 e1 37 3e e2 c3 97 3d 04 ff fd bd
       0.08289342 0.17956932 0.074104086 -0.12402156
000100 1a 08 7f be d6 12 02 3e 65 48 a0 bd 16 5c 67 3d
       -0.24905434 0.12702498 -0.07826308 0.056484304
000110 bc 43 a6 3e 55 40 89 bd 89 76 71 3c 5c e5 41 bd
       0.32473552 -0.067017235 0.014737734 -0.047337875
000120 26 86 02 bf 80 10 89 3e a2 53 0f 3e f4 a4 42 bd
       -0.50985944 0.267704 0.13996747 -0.047520593
000130 c3 03 ee 3d 50 a5 2d 3f 36 c3 b7 bd 64 eb d2 3d
       0.11621811 0.6783037 -0.089727804 0.102988034
000140 30 35 db bc 2c 15 ca bc 87 ca 8b bd a2 93 f7 bd
       -0.02675876 -0.024668299 -0.068257384 -0.120887056
000150 07 6a bb bd c2 80 1e bd ca 95 59 bd 3a 97 e5 3d
       -0.091510825 -0.03869701 -0.053121366 0.11210485
000160 60 5f 15 bd f6 6e 01 be 4b dd a9 bd 33 93 66 3d
       -0.03646791 -0.12639984 -0.082941614 0.056292724
000170 f9 4e c7 bc 0f 2e 46 bd ae c8 cd 3d 4c 23 ea bd
       -0.02432965 -0.04838377 0.10048042 -0.114325136
000180 c7 4e 42 b9 e8 9b db bd 4e 10 9e 3f 54 ba e7 bd
       -0.00018530629 -0.10723096 1.2348726 -0.11314836
000190 24 94 76 bc 78 d9 49 3d f1 77 62 bd 70 c7 a2 bd
       -0.015049968 0.04927966 -0.055290166 -0.07948196
0001a0 94 32 8f bd de 00 2f 3c 1f 14 9b bd 21 3e 8b 3d
       -0.06992069 0.010681359 -0.07572197 0.067989595
0001b0 19 41 52 3d ae df 79 bd 72 ce 4c 3c 0e 53 e2 bc
       0.051331613 -0.061004333 0.012500392 -0.027627494
0001c0 f7 a8 89 3d bb 00 c1 bd 0b 32 41 bd c3 04 68 bb
       0.067216806 -0.094239675 -0.047166865 -0.0035403229
0001d0 27 d5 01 3e 38 82 05 be 7a fd 2e 3d 12 77 8e 3d
       0.12678967 -0.13037956 0.042722203 0.069563046
0001e0 5c 6a 03 3e 80 ea 1e bc cd f5 29 3d 10 82 c3 bd
       0.12833542 -0.009699464 0.04149418 -0.09546292
0001f0 37 37 c4 bc 6f 49 ef 3c 09 17 5f 3e fa 8b f3 bc
       -0.02395211 0.02920982 0.21786131 -0.029729832
000200 72 61 5f 3d b9 9a 02 3e e2 9f 89 bd db b4 03 3d
       0.05453629 0.12754335 -0.06719948 0.0321549
000210 47 4a 55 bd a0 a9 bd 3d e8 33 96 3d 89 b5 bf bd
       -0.05207279 0.09260869 0.07334119 -0.09360797
000220 b1 81 ef bd b6 81 0d be f2 7b 1f bb 85 a3 aa bd
       -0.116946585 -0.13819012 -0.0024335352 -0.0833197
000230 9a 51 ed bd 7c 00 33 3e 92 9e db bd 8d 58 d3 bd
       -0.1158783 0.17480654 -0.10723604 -0.10319624
000240 59 72 fe bd 83 06 3f bc d5 8d e7 3d bb a6 e7 3c
       -0.12424154 -0.011659267 0.11306349 0.028277745
000250 ff 30 0c 3e 50 4c 42 3c e7 65 9d bc d6 ea e5 bd
       0.13690566 0.011859015 -0.01921363 -0.11226432
000260 41 e1 e9 bd 66 91 e9 3d f5 3a 46 3d 4f 48 3c 3d
       -0.11419917 0.11404686 0.04839607 0.045967396
000270 0e 3e 4c 3d b9 06 0a 3d b4 1a 54 bc 38 83 f1 3b
       0.049863867 0.033697817 -0.01294582 0.007370379
000280 35 1d 10 3e 31 14 b4 3d 93 cd 80 bd 40 05 2b bb
       0.14073642 0.08792914 -0.0628921 -0.0026095659
000290 e9 2b 00 3e be 32 fb bd a3 0e 5a bd 52 f6 98 bd
       0.1251675 -0.12265538 -0.053236615 -0.07468857
0002a0 c5 c8 57 3d ce 15 c3 bd 38 59 e1 3d f0 cd b1 3c
       0.052681703 -0.09525643 0.11003345 0.021704644
0002b0 ca 99 38 bd 3c 97 b4 bd 57 e0 c6 bd d4 d7 77 3d
       -0.04506854 -0.08817908 -0.09710758 0.060508564
0002c0 41 ef 26 3d 50 43 6c 3d de 72 17 be c2 c3 39 3d
       0.040755514 0.05768138 -0.14789912 0.045352705
0002d0 29 66 bf bd e9 68 7d bd aa 5a f5 bd 57 43 c3 3d
       -0.093456574 -0.06186763 -0.119801834 0.095343284
0002e0 d6 d2 d3 bd 2c a4 83 3d e0 61 fc 3c 14 6f 6f 3d
       -0.10342948 0.06427798 0.03080839 0.05845554
0002f0 41 cc 0f 3e 58 9e 47 bd c8 b5 80 3d 6b a9 85 bd
       0.1404276 -0.048734993 0.06284672 -0.065264545
000300 39 47 2f be a0 c4 dc 3b e5 4a f9 bd c9 89 07 be
       -0.17117013 0.0067373067 -0.12172488 -0.13236155
000310 e4 11 a0 bd 40 a9 d5 bd c8 0f f0 bc 21 05 ea bd
       -0.07815912 -0.104326725 -0.0293044 -0.114267595
000320 32 2d 56 bc 33 5c c1 3d 69 1b da bd e1 f6 d6 3d
       -0.013072299 0.09441414 -0.10649759 0.10496307
000330 d1 51 32 3e e3 be a7 3d 26 cd 7b 3d 62 ec 2a 3c
       0.17414023 0.081907056 0.06147494 0.010432335
000340 eb 85 05 3e 3b c4 12 be e0 a6 99 bd 0a 24 f8 3d
       0.13039367 -0.14332668 -0.07502532 0.12116249
000350 f1 4f 36 3d db 7b a1 bd 8a 6f da 3d 9e d4 13 3e
       0.04450983 -0.07884952 0.10665806 0.14436576
000360 d2 74 c6 3d 86 e9 06 be d5 03 09 3e c4 27 cc 3d
       0.096902505 -0.1317502 0.13380368 0.09968522
000370 c2 d0 9a bd 5c 0e af 3d 7c ab e4 be f5 e2 83 3d
       -0.07559349 0.08547661 -0.44662082 0.06439773
000380 11 49 c7 3d 6c 53 03 bd 7b d1 f5 3e 7b 1d f9 bd
       0.09730733 -0.03206198 0.48011383 -0.12163826
000390 77 23 d8 3d 89 b2 04 be 6c a5 0b 3e 20 92 7c 3b
       0.105536394 -0.12958731 0.13637322 0.0038539246
0003a0 7d 5c d3 bd 9b 04 d5 bb f2 3c f1 3d 50 12 8e 3c
       -0.10320375 -0.006500793 0.117792025 0.017342716
0003b0 70 2a 81 3d b4 8b 18 3d 6b d4 0c 3e 8e 08 f0 bd
       0.063069224 0.037242606 0.13752906 -0.11720382
0003c0 18 f8 6d 3d 9d 75 88 3d a4 a6 03 3e 73 d4 db 3d
       0.05809793 0.06663058 0.12856537 0.10733881
0003d0 75 d8 24 be d0 c1 f6 3b 08 84 69 bc 98 cf 3d 3c
       -0.16098197 0.0075304285 -0.01425267 0.011585139
0003e0 b4 fd 15 3e 76 2f 7b bd c0 60 7d 3c 1a 0d 6d 3d
       0.14647561 -0.06132456 0.0154649615 0.057873823
0003f0 a0 61 a2 bd 49 a4 90 bd d6 31 49 bd 51 7f 08 3e
       -0.07928777 -0.07062585 -0.049119793 0.13329817

fc3.bias f4 [10]
000000 33 36 72 3d ea ea 40 be 64 b5 3d 3e 71 9b f5 bc
       0.05913372 -0.18839613 0.18526226 -0.029981347
000010 80 4b 52 3e 01 87 cc bd 1f 15 4c 3e e1 c6 66 bc
       0.20536613 -0.099866875 0.19929932 -0.014085502
000020 bc 49 2e 3e 8f e0 94 bd
       0.17020315 -0.07269394

fc4.weight f4 [10, 10]
000000 86 12 4f 3e 7c 4a 79 be eb 35 83 3e d3 c0 2c bd
       0.2022191 -0.2434482 0.25627074 -0.04217608
000010 34 5f 41 3e 87 ee d2 bc ce 8d 6c bd da a3 f9 bd
       0.18883973 -0.025748504 -0.057752423 -0.12189455
000020 e0 f1 40 3e 49 fd 1a 3e 2e 74 85 3e 6d 86 07 3d
       0.18842268 0.15135683 0.260652 0.033087183
000030 94 37 31 bd d9 1c 14 be cf c6 3a be 28 98 30 be
       -0.043265894 -0.1446413 -0.18239902 -0.17245543
000040 1d b7 0a bf 1c 3a 63 3d 99 65 43 be 24 10 38 3e
       -0.5418566 0.05547534 -0.19081725 0.17974907
000050 91 d6 81 3e 1f 65 af 3e 6a b1 b8 3d b5 1c 5f be
       0.25359014 0.34256837 0.09018214 -0.21788295
000060 6e 74 10 bc b6 79 26 3d 90 ff f8 3e 41 31 33 be
       -0.0088168215 0.040643416 0.4863248 -0.17499258
000070 f3 d1 8f 3e 7b ad 04 3d 0f 13 96 3e 65 e1 9d 3e
       0.28089866 0.032392006 0.29311416 0.30836025
000080 b8 1f 18 3c cd 65 f7 3b 7d 02 31 3e 48 85 ed 3d
       0.009284906 0.0075499774 0.17286105 0.11597687
000090 63 31 38 3f df 3d 16 bf bd e1 0f bf bb e0 f7 3e
       0.7195036 -0.5868816 -0.56203824 0.48413643
0000a0 66 8e fe bd 49 e3 8d be 1a 9e 41 be 90 4b 11 3e
       -0.12429504 -0.27712467 -0.18907967 0.14188981
0000b0 be 90 31 be 40 97 20 be 86 35 06 3e 78 3c e3 3d
       -0.17340371 -0.15682697 0.13106355 0.11095518
0000c0 80 ad be bb b2 8d 3f be de c6 b5 3e 7d cc 81 3e
       -0.0058190227 -0.18706396 0.35503286 0.25351325
0000d0 14 f9 7b 3e a4 58 86 be e4 03 ee bd 65 36 12 be
       0.24606735 -0.26239502 -0.11621836 -0.14278562
0000e0 dd 28 d2 3e c5 86 18 be a1 14 9e be 51 76 6b 3e
       0.410468 -0.1489516 -0.30875114 0.22994353
0000f0 06 b1 72 be 5b 0c 11 be 21 48 bf 3e 0d af 10 bd
       -0.23700342 -0.1416487 0.37359717 -0.03532319
000100 46 4b 2a 3e 4a 79 89 be e2 db 8b bf a9 f5 6c 3d
       0.16630277 -0.2685035 -1.0926478 0.057851467
000110 6f 41 d7 3c d0 2e 77 39 84 0b a3 3e bc ee de 3e
       0.026276318 0.00023573195 0.31844723 0.43541515
000120 92 a4 74 be 7f 85 a9 3d fb 80 78 3e 8b be b2 bd
       -0.23890904 0.082774155 0.24267952 -0.087277494
000130 15 74 ee 3e 04 06 b2 be 06 b4 96 3d c8 81 3b be
       0.4657294 -0.34770215 0.073585555 -0.18311226
000140 e7 2e e8 b9 44 ea 1e 3e 5b d1 be 3d d1 d9 0b be
       -0.00044285433 0.15519053 0.09317275 -0.13657309
000150 c1 21 87 bd 99 87 7a be 95 f3 e4 be 3d e7 d9 3a
       -0.06598235 -0.24465789 -0.44717088 0.00166247
000160 c6 c5 ae 3e c9 36 ba be 66 fa 6f 3e c8 97 71 3d
       0.34135264 -0.36369923 0.23435363 0.05898264
000170 9e 40 0e 3e 03 d2 b4 bd 56 1f 8c 3e e0 3c e2 3d
       0.13891837 -0.08829119 0.27367657 0.11046767
000180 44 ec aa bf d8 b0 a2 be 2b ef a6 3e 75 e5 1f be
       -1.3353353 -0.31775546 0.32604346 -0.15614875

fc4.bias f4 [10]
000000 56 da b0 3d ab 53 6b 3e 63 d8 2d 3e d0 b2 22 3d
       0.08635394 0.22981136 0.16977076 0.03972131
000010 e0 ce 23 be dd 14 b2 3c 5e 52 3e 3e c8 2c 27 be
       -0.15996885 0.021738464 0.18586108 -0.16325676
000020 38 1e 4c 3e c9 cf 50 be
       0.19933403 -0.20391764

out_x.weight f4 [2, 10]
000000 2b d6 9d 3d 87 4a 3d bf 64 a3 7a 3e 07 9a 01 3d
       0.07706865 -0.73941845 0.24476391 0.031641033
000010 78 ef 16 3d 32 5b d6 bd e1 7d 20 bf 77 82 d1 3d
       0.03684947 -0.10466613 -0.62692076 0.10229962
000020 db 2d 6d 3d f2 9a 82 bf 70 0c 9e be 2e 65 7f bd
       0.05790506 -1.0203536 -0.30868864 -0.06235235
000030 f2 e9 c4 3e 9b ae 8d 3d 7a 8d 79 3e 3d 47 04 bd
       0.38459736 0.06918069 0.24370375 -0.0322945
000040 c8 c6 b7 be 32 13 07 3f e0 ef 54 bd 94 d9 a1 3b
       -0.35893846 0.52763665 -0.051986575 0.0049392674

out_x.bias f4 [2]
000000 f0 1f a5 3d 54 bc 7e be
       0.08062732 -0.24876529

out_y.weight f4 [2, 10]
000000 36 f9 81 be 29 a0 81 3d fe d6 cd bd b4 f8 51 bf
       -0.25385445 0.06329376 -0.10050772 -0.82020116
000010 24 4e 03 be 0d 4b 35 be 01 52 fd 3c 20 af 75 be
       -0.12822777 -0.17704411 0.030922892 -0.23992586
000020 54 1b e1 3e e7 85 2d 3e cb f1 9f be da 75 26 3f
       0.43966162 0.16945611 -0.3123916 0.6502358
000030 15 67 58 be 21 99 51 3e 72 bf 2a 3e af c2 57 3f
       -0.21133073 0.2046857 0.16674593 0.8428144
000040 2f 41 25 bf 03 30 0c 3e 25 c5 98 be 39 dd 70 be
       -0.6455259 0.1369019 -0.2983791 -0.2352189

out_y.bias f4 [2]
000000 10 2f 35 3e 78 f3 9f bc
       0.17693734 -0.019525275

out_theta.weight f4 [1, 10]
000000 82 7e 9e 3e 98 d4 0e be 56 ac 9e 3e d7 57 35 bd
       0.30955893 -0.13948286 0.30990857 -0.044273224
000010 00 72 81 bd e5 0d 2b 3e 8f 2e c4 bd 36 cd 81 be
       -0.06320572 0.16704519 -0.09579193 -0.25351876
000020 6e f6 c9 3d 57 7a 14 3e
       0.09861456 0.14499794
