models/contact_net_v1_unclipped_small.pt (torch, 20499 bytes, 15 tensors)

fc0.weight f4 [10, 3]
-0.57784635 -0.41165516 -0.47236812 0.036920056 0.4263185 0.4847532 -0.14783624 -0.27004483
0.16188356 1.4008286 0.0060196295 -0.11246443 -0.67370075 0.0879731 -0.4434847 0.016197734
-0.24588385 0.52424824 -0.05385526 -0.5242403 -0.19867645 0.4930118 0.22114654 -0.06352444
0.27286744 -0.037964057 -0.12633811 -0.52725816 -0.029914413 -0.5189703
00000000: bded 13bf 77c4 d2be 3cda f1be 7c39 173d
00000010: 6b46 da3e 9231 f83e 6262 17be 5143 8abe
00000020: cec4 253e 5a4e b33f 5040 c53b c053 e6bd
00000030: a777 2cbf 3e2b b43d 6d10 e3be 1cb1 843c
00000040: fac8 7bbe 2235 063f 5597 5cbd 9d34 06bf
00000050: d771 4bbe 0b6c fc3e 3d74 623e 1a19 82bd
00000060: 48b5 8b3e 3380 1bbd c75e 01be 64fa 06bf
00000070: 120f f5bc 3ddb 04bf

fc0.bias f4 [10]
-0.09972009 0.25752574 0.11743972 0.039818022 -0.46536872 -0.6262321 -0.23500974 -0.057112318
0.250516 0.27524838
00000000: 0c3a ccbd 6ada 833e 3c84 f03d 3918 233d
00000010: cf44 eebe bf50 20bf 65a6 70be 9bee 69bd
00000020: a243 803e 5bed 8c3e

fc1.weight f4 [50, 10]
-0.1080689 0.035478532 0.085575886 0.25115654 0.14506081 -0.08890057 0.08114966 0.25917432
-0.33401215 -0.32473606 -0.18237022 0.17649552 -0.05956018 -0.1762296 -0.015388445 -0.26734748
-0.08622858 -0.30081818 -0.47960204 -0.5602181 -0.29661095 0.30432528 0.19669433 -0.04101939
0.1400069 -0.15796089 0.2787546 -0.08920601 0.15251878 0.030308256 0.033126783 -0.065314285
-0.28872913 0.21519512 0.026353745 0.30151474 -0.1524849 0.32518792 -0.090934575 -0.3938914
-0.31644404 0.3213853 -0.23461035 -0.0057190624 -0.06528117 -0.34705868 0.26971367 -0.1694508
0.25492948 0.26817682 -0.13110352 -0.15316935 0.32307374 0.21511206 0.15061621 -0.051463187
-0.12937552 0.4245821 -0.005245306 0.294489 -0.18828021 0.2213907 0.07439076 -0.019330645
-0.9299422 0.21681333 0.10488348 -0.0826961 0.36142802 -0.5474207 0.2932256 0.35761577
0.24844523 -0.05821268 0.18047404 -0.1640756 0.16620113 -1.1182674 -0.660096 0.039737843
0.025231121 -0.14071807 0.01150348 0.29257903 0.26697415 0.09564565 -0.11614821 -0.41029
0.089919984 -0.08543002 -0.3504603 -0.05757101 -0.031682074 -1.2613666 0.11243318 -0.01560998
0.01507014 0.14257316 -0.050068293 0.36077657 -0.40208688 0.06243431 0.2962401 0.042597976
0.12538399 -0.018405806 0.078570314 0.14421341 0.38957548 -0.099507 0.13196672 0.08964183
-0.29678506 -0.1194836 -0.06478623 0.0914566 0.13219953 0.13288201 -0.030555906 0.3106793
-0.0474195 0.10490302 -0.017576413 0.10942827 0.3292961 -0.022761129 -0.24037743 -0.07558158
-0.098313905 0.28829658 0.13898136 -0.0792128 -0.048440263 0.08967857 0.25441876 -0.16516715
-0.028943367 0.3271057 -0.18469864 -0.18099643 -0.16433972 0.12993833 0.027609738 0.1786651
-0.36712548 0.30968958 -0.22819616 -0.26101625 -0.23042834 -0.39960867 0.10113197 -0.19980195
-0.26358017 -0.0871883 -0.062619664 0.20400146 0.18589614 -0.4789305 -0.83061403 0.13051085
0.17337927 -0.057432283 0.12531057 -1.0458211 0.010082631 -0.11866841 -0.1888386 0.039200317
-0.10691874 0.2505445 -0.35409838 0.011711471 0.09170285 0.19288166 -0.6378236 0.09047189
-0.017379547 0.2075386 0.3413118 -0.90493613 -0.04171469 0.19796394 0.116048165 -0.015931794
0.12052659 0.063403614 0.23311366 0.26445863 0.029998064 -0.30208457 0.07510231 0.08488887
0.104490004 -0.861076 0.08386165 0.1397338 -0.12314052 -0.33255473 -0.33594808 0.19427568
0.045505963 0.035155468 0.24153574 0.12739722 0.095163964 0.17542583 -0.19761378 0.36009684
0.18734811 0.12269134 -0.069921024 0.18600449 -0.30791476 -0.2994728 0.18000765 -0.27875912
-0.1937291 0.310537 0.12749764 0.15220667 0.20853913 0.31269637 0.20222369 -0.26641762
-0.28287414 0.08899275 -0.037018605 0.36635587 0.062313784 -0.38011688 -0.3941041 0.09567663
0.13146377 -1.1761769 0.383625 -0.013905334 -0.149162 -0.19653772 -0.2028619 0.08360422
0.22280864 0.0166722 0.05801897 0.17735231 0.02851887 0.16239056 0.15441386 -0.21559642
0.005228467 0.2435227 -0.19483958 -0.12109704 -0.3578557 0.26898617 0.32000306 0.2607229
00000000: 3a53 ddbd f051 113d 6942 af3d 9797 803e
00000010: d28a 143e 8111 b6bd cb31 a63d 7fb2 843e
00000020: a403 abbe ce43 a6be 42bf 3abe 3ebb 343e
00000030: 60f5 73bd 8875 34be d11f 7cbc c5e1 88be
00000040: 9c98 b0bd d704 9abe 668e f5be 746a 0fbf
00000050: 64dd 97be 86d0 9b3e 3d6a 493e f303 28bd
00000060: f85d 0f3e 80c0 21be ecb8 8e3e a4b1 b6bd
00000070: e22d 1c3e 0549 f83c f3af 073d 7fc3 85bd
00000080: 4ed4 93be 1c5c 5c3e cfe3 d73c 2460 9a3e
00000090: 0025 1cbe 087f a63e e83b babd 22ac c9be
000000a0: f404 a2be 9d8c a43e b23d 70be f966 bbbb
000000b0: 22b2 85bd adb1 b1be e917 8a3e 8384 2dbe
000000c0: 1e86 823e 794e 893e 0040 06be 6dd8 1cbe
000000d0: ec69 a53e 5646 5c3e 233b 1a3e 10cb 52bd
000000e0: 047b 04be d362 d93e d1e0 abbb 43c7 963e
000000f0: 87cc 40be 3eb4 623e 2f5a 983d 4d5b 9ebc
00000100: b110 6ebf 5004 5e3e 26cd d63d 935c a9bd
00000110: 180d b93e c323 0cbf aa21 963e 6a19 b73e
00000120: 6d68 7e3e 6b70 6ebd 30ce 383e 6f03 28be
00000130: a130 2a3e 6323 8fbf 0dfc 28bf 26c4 223d
00000140: 7fb1 ce3c 6618 10be 1879 3c3c ebcc 953e
00000150: d6b0 883e dee1 c33d 1ddf edbd 8811 d2be
00000160: f827 b83d eff5 aebd 886f b3be 94cf 6bbd
00000170: 10c5 01bd 7674 a1bf 5e43 e63d 00c1 7fbc
00000180: c0e8 763c b3fe 113e 6914 4dbd b5b7 b83e
00000190: 55de cdbe 1ebb 7f3d c8ac 973e 377b 2e3d
000001a0: a964 003e c6c7 96bc 79e9 a03d aeac 133e
000001b0: 7076 c73e 53ca cbbd 4922 073e 2396 b73d
000001c0: 36f4 97be d1b3 f4bd a5ae 84bd 994d bb3d
000001d0: 505f 073e 3912 083e 6150 fabc 5b11 9f3e
000001e0: f33a 42bd 65d7 d63d 69fc 8fbc ee1b e03d
000001f0: 8099 a83e 8c75 babc 8025 76be 84ca 9abd
00000200: cd58 c9bd 9c9b 933e 2151 0e3e 523a a2bd
00000210: 4c69 46bd 66a9 b73d 2d43 823e 9421 29be
00000220: a41a edbc 667a a73e a421 3dbe 2157 39be
00000230: ac48 28be 8e0e 053e d12d e23c fcf3 363e
00000240: dff7 bbbe a28f 9e3e 41ac 69be eca3 85be
00000250: 68f5 6bbe 8299 ccbe 471e cf3d e298 4cbe
00000260: fbf3 86be c88f b2bd bd3e 80bd c2e5 503e
00000270: 8f5b 3e3e 6136 f5be 1fa3 54bf a3a4 053e
00000280: 568a 313e 1d3e 6bbd 6a51 003e 77dd 85bf
00000290: 9f31 253c 6c08 f3bd e85e 41be 8390 203d
000002a0: 36f8 dabd 5e47 803e 624c b5be 78e1 3f3c
000002b0: b4ce bb3d c582 453e 6848 23bf 5449 b93d
000002c0: 8d5f 8ebc 0085 543e 6cc0 ae3e e5a9 67bf
000002d0: 06dd 2abd 0fb7 4a3e a9aa ed3d 6583 82bc
000002e0: a5d6 f63d c1d9 813d 59b5 6e3e 1f67 873e
000002f0: 80be f53c d4aa 9abe 3dcf 993d 37da ad3d
00000300: dbfe d53d 7a6f 5cbf a8bf ab3d 6116 0f3e
00000310: 1931 fcbd 9d44 aabe 6301 acbe 34f0 463e
00000320: 7664 3a3d 2eff 0f3d 2555 773e 6b74 023e
00000330: 53e5 c23d d4a2 333e 445b 4abe 9d5e b83e
00000340: 2fd8 3f3e 9945 fb3d c132 8fbd f677 3e3e
00000350: 01a7 9dbe 8054 99be ed53 383e 84b9 8ebe
00000360: ec60 46be b5fe 9e3e be8e 023e 11dc 1b3e
00000370: 488b 553e bd19 a03e ba13 4f3e e467 88be
00000380: e1d4 90be d541 b63d d2a0 17bd ff92 bb3e
00000390: bd3c 7f3d ae9e c2be 03c8 c9be 1cf2 c33d
000003a0: 709e 063e f78c 96bf 7f6a c43e 33d3 63bc
000003b0: ecbd 18be 2f41 49be 08bb 4fbe b038 ab3d
000003c0: f327 643e 2394 883c 4da5 6d3d d89b 353e
000003d0: 68a0 e93c b649 263e ab1e 1e3e 4fc5 5cbe
000003e0: 8f53 ab3b 045e 793e 0784 47be ba01 f8bd
000003f0: dd38 b7be 8eb8 893e 71d7 a33e 797d 853e

fc1.bias f4 [50]
-0.069324195 0.2093136 0.28871053 -0.7593969 0.12523448 -0.07085935 -0.40004465 -0.4753183
0.08947598 0.08036269 -0.053302 -0.21911399 0.0898316 -0.33172682 0.36320958 0.41498017
0.30098808 -0.25879756 0.09327581 0.41468802 -0.23275957 0.09673557 -0.33068827 0.0203094
0.12903744 -0.15275492 -0.17680387 0.14094307 0.10211131 -0.19981004 0.19999295 0.21433279
0.32579315 0.38205442 -0.29283747 -0.23569773 0.20846494 0.091380656 0.12321959 -0.034517534
0.22158833 0.03985888 0.27746195 -0.20093697 0.39463183 -0.083834216 -0.23619123 0.41071188
0.08058007 0.06331255
00000000: d8f9 8dbd 4e56 563e ded1 933e d667 42bf
00000010: 783d 003e b51e 91bd a7d2 ccbe ec5c f3be
00000020: 2f3f b73d 3295 a43d 3353 5abd 6b5f 60be
00000030: a1f9 b73d 19d8 a9be 9bf6 b93e 4878 d43e
00000040: 1c1b 9a3e 1d81 84be 6307 bf3d fd51 d43e
00000050: 8658 6ebe 4c1d c63d f94f a9be e65f a63c
00000060: 6422 043e c96b 1cbe 130c 35be 6153 103e
00000070: bc1f d13d 019b 4cbe f4ca 4c3e 0e7a 5b3e
00000080: 5cce a63e a39c c33e cbee 95be bf5a 71be
00000090: d577 553e c825 bb3d 8d5a fc3d 4262 0dbd
000000a0: 0de8 623e 1143 233d 7e0f 8e3e 6cc2 4dbe
000000b0: 2f0d ca3e 46b1 abbd 1ddc 71be d448 d23e
000000c0: 2a07 a53d 03aa 813d

fc2.weight f4 [50, 50]
-0.031741764 0.0560218 0.102011055 0.12953979 0.041526694 0.18805867 -0.031816844 0.039989214
-0.011743652 0.11067946 -0.040446423 0.11096142 -0.122708306 -0.032910954 0.07625387 0.017734336
-0.1331265 -0.044876583 0.07054628 -0.041349497 0.038157523 -0.102304116 0.04727591 -0.07939271
0.0058361683 0.0638447 -0.07619941 0.0026258135 -0.044731922 -0.07993358 0.097948045 0.123231664
0.014308927 0.5120215 0.06983447 -0.07654385 0.15102105 -0.13752484 0.028360216 0.099948384
0.0364091 -0.07403596 0.08528799 0.085977025 0.114981435 0.015486297 0.026835399 -0.009411924
0.06203488 0.092077635 -0.038976483 -0.1545619 -0.1609596 0.115884885 -0.020300955 0.29114974
0.048640728 0.15359826 -0.122693755 0.16786453 0.059001684 0.14730097 -0.06860166 0.28050053
0.072268926 -0.14404866 0.12102047 0.048021775 0.0046339743 -0.1593776 0.06484486 -0.11405566
-0.09525488 0.12971604 0.07176991 0.2775645 -0.077497765 -0.11526735 0.06721637 -0.09520176
0.08108026 -0.058396153 0.10345876 -0.35676864 0.064575925 0.30093804 -0.07994404 -0.10876373
-0.0123844985 -0.11271268 -0.1366529 -0.3733116 0.10309456 0.06733787 0.015728885 0.08359686
-0.025907 0.18975538 -0.13781857 0.02766272 -0.060432084 -0.03864898 -0.0053924434 0.20457612
0.03885361 -0.026040783 0.12508658 -0.3248747 -0.101538464 0.22655877 -0.14888655 -0.104970545
0.08332652 -0.051022135 -0.08418249 -0.13685726 0.13179612 0.14253905 0.029878907 0.0768751
-0.014467871 0.11566207 0.13217568 0.2990332 -0.2195069 -0.09270067 0.118786864 0.08409828
0.10730791 0.033591714 -0.033139154 -0.07634876 -0.048354987 0.10126503 -0.020792983 0.02862502
0.13304587 -0.17141157 -0.06962715 -0.060167875 -0.08224411 0.028086323 0.15770733 -0.060644284
0.041798472 -0.026979884 0.02773851 -0.01719491 0.01815803 0.022060145 0.04469104 -0.05296064
-0.069256924 -0.040907297 -0.04073738 -0.2517882 0.008158119 -0.11616362 -0.0045778262 -0.5441677
-0.026144205 0.019697431 0.047891375 0.12240845 0.013792248 0.023565566 -0.16527548 -0.05730355
0.060564183 -0.34286448 0.10308199 0.012254078 -0.0072319335 -0.32677248 -0.042911734 -0.028452326
-0.28410372 0.033849403 0.0497137 0.038858548 -0.0075079747 -0.12103849 -0.027890146 0.028545454
0.11182718 0.11597978 0.12354635 -0.022791356 -0.053947426 -0.10425232 0.11810945 0.12278861
-0.25271532 0.057187103 -0.5043909 0.11923447 -0.059020232 0.09932506 0.10365746 0.01906705
0.006738162 0.07889936 0.067864336 -0.0038887882 0.09881075 0.08492363 0.058318704 -0.064073674
0.14664255 -0.016623164 0.13257006 0.025834234 -0.007132411 0.115391076 -0.10449408 -0.17598502
-0.104606606 -0.08426006 -0.06734639 0.085277274 0.093132116 0.06063535 0.0968297 -0.017555688
-0.06632825 0.050300825 0.013633687 0.053305 -0.10334863 -0.08443807 0.03974921 -0.14444785
-0.043691654 -0.3677991 0.07526025 -0.024244895 0.0078089847 0.01842519 -0.18619122 0.12763233
0.12712704 -0.07137915 0.117178984 -0.19064571 -0.08025785 -0.064522654 -0.010256297 -0.10135874
0.04206403 -0.045771737 0.013533369 0.112367675 -0.09867916 -0.004553467 -0.01929304 -0.057236165
00000000: a703 02bd 1d77 653d 2ceb d03d 14a6 043e
00000010: e517 2a3d 7492 403e 6152 02bd bbcb 233d
00000020: 7268 40bc eaab e23d 26ab 25bd be3f e33d
00000030: 7e4e fbbd a3cd 06bd fd2a 9c3d 9947 913c
00000040: 5052 08be 82d0 37bd 917a 903d 175e 29bd
00000050: 104b 1c3d d284 d1bd 62a4 413d a598 a2bd
00000060: 543d bf3b 03c1 823d 700e 9cbd d715 2c3b
00000070: d238 37bd 37b4 a3bd fc98 c83d e260 fc3d
00000080: fd6f 6a3c d713 033f 6005 8f3d 06c3 9cbd
00000090: 43a5 1a3e 50d3 0cbe af53 e83c bdb1 cc3d
000000a0: b521 153d 2aa0 97bd 78ab ae3d b914 b03d
000000b0: 637b eb3d 3dba 7d3c e9d5 db3c 7834 1abc
000000c0: 4918 7e3d 3393 bc3d cea5 1fbd 7a45 1ebe
000000d0: 98d2 24be 0e55 ed3d 304e a6bc 9411 953e
000000e0: 803b 473d dd48 1d3e dd46 fbbd aee4 2b3e
000000f0: c0ab 713d 11d6 163e 077f 8cbd c49d 8f3e
00000100: bb01 943d 7e81 13be 95d9 f73d 7bb2 443d
00000110: 98d8 973b e233 23be 62cd 843d 0496 e9bd
00000120: fe14 c3bd 48d4 043e 1afc 923d ef1c 8e3e
00000130: 26b7 9ebd 4a11 ecbd bca8 893d 24f9 c2bd
00000140: 680d a63d ce30 6fbd 30e2 d33d 61aa b6be
00000150: 6240 843d 8d14 9a3e b3b9 a3bd 85bf debd
00000160: 5ae8 4abc e8d5 e6bd bdee 0bbe b322 bfbe
00000170: 3e23 d33d 70e8 893d ddd9 803c d534 ab3d
00000180: eb3a d4bc 3c4f 423e 5020 0dbe ee9c e23c
00000190: a287 77bd 654e 1ebd 18b3 b0bb 677c 513e
000001a0: f724 1f3d 7b53 d5bc b216 003e fa55 a6be
000001b0: 66f3 cfbd 06ff 673e b775 18be ccfa d6bd
000001c0: 18a7 aa3d 96fc 50bd df67 acbd 4f24 0cbe
000001d0: 90f5 063e c2f5 113e 9cc4 f43c b170 9d3d
000001e0: a60a 6dbc 3ce0 ec3d 1059 073e e11a 993e
000001f0: 6bc6 60be d9d9 bdbd 8746 f33d b83b ac3d
00000200: 40c4 db3d 7797 093d ecbc 07bd bd5c 9cbd
00000210: e10f 46bd 0a64 cf3d 0c56 aabc 057f ea3c
00000220: 2d3d 083e 8486 2fbe ae98 8ebd 9772 76bd
00000230: 9a6f a8bd 4a15 e63c 087e 213e 2466 78bd
00000240: e034 2b3d eb04 ddbc df3b e33c 57dc 8cbc
00000250: 26c0 943c 7ab7 b43c f40d 373d 42ed 58bd
00000260: 93d6 8dbd 698e 27bd 3ddc 26bd 62ea 80be
00000270: a2a9 053c 31e7 edbd 9701 96bb 934e 0bbf
00000280: 5f2c d6bc 825c a13c bf29 443d 48b1 fa3d
00000290: e2f8 613c 930c c13c fa3d 29be 21b7 6abd
000002a0: 2612 783d ef8b afbe a61c d33d 54c5 483c
000002b0: dbf9 ecbb b94e a7be 37c4 2fbd da14 e9bc
000002c0: 0b76 91be aca5 0a3d 98a0 4b3d 242a 1f3d
000002d0: 7505 f6bb 07e3 f7bd e079 e4bc 28d8 e93c
000002e0: a605 e53d cf86 ed3d de05 fd3d f0b4 babc
000002f0: faf7 5cbd 3e82 d5bd 5ee3 f13d 9878 fb3d
00000300: e763 81be 063d 6a3d c31f 01bf 3431 f43d
00000310: 33bf 71bd f06a cb3d 5d4a d43d 8132 9c3c
00000320: cdcb dc3b fd95 a13d 75fc 8a3d 0adb 7ebb
00000330: 4a5d ca3d 71ec ad3d 98df 6e3d 0f39 83bd
00000340: 7729 163e 4d2d 88bc 72c0 073e 51a2 d33c
00000350: 00b7 e9bb 2852 ec3d fe00 d6bd 6b35 34be
00000360: fd3b d6bd 8a90 acbd e7ec 89bd daa5 ae3d
00000370: 0dbc be3d c65c 783d a64e c63d f2d0 8fbc
00000380: 1bd7 87bd 3d08 4e3d d45f 5f3c 5856 5a3d
00000390: 72a8 d3bd deed acbd 11d0 223d 23ea 13be
000003a0: 05f6 32bd 2a50 bcbe 0c22 9a3d 3b9d c6bc
000003b0: 83e2 ff3b 6df0 963c e9a8 3ebe 0db2 023e
000003c0: 972d 023e 3b2f 92bd 89fb ef3d a138 43be
000003d0: 3a5e a4bd 7424 84bd 070a 28bc 2c95 cfbd
000003e0: 554b 2c3d 257b 3bbd 10bb 5d3c 0621 e63d
000003f0: 4d18 cabd 4035 95bb 700c 9ebc 7870 6abd

fc2.bias f4 [50]
0.07578678 -0.26446518 0.054084267 -0.07747147 -0.12407825 -0.06758725 -0.07365387 0.037098717
-0.16992155 -0.089582 0.18824036 0.19488904 0.18156917 0.078749515 -0.19262907 0.21038082
-0.084993444 -0.05942532 -0.109083585 -0.03649274 -0.11733866 0.02446592 0.07581243 -0.10867806
0.0950665 0.029552367 0.15341954 0.23054558 0.09777541 0.1447759 0.03390668 0.050324738
0.07470684 -0.009479739 -0.0170088 -0.11043057 0.22411463 0.1348045 0.18068385 -0.20412353
0.1340992 -0.07777421 0.3517863 0.20716709 0.02808775 -0.033941064 0.07659501 0.1257958
0.042129647 -0.081608616
00000000: 1936 9b3d fb67 87be 7787 5d3d 5da9 9ebd
00000010: bd1c febd 2f6b 8abd d7d7 96bd d3f4 173d
00000020: eaff 2dbe c576 b7bd 15c2 403e fe90 473e
00000030: 45ed 393e 6d47 a13d 8e40 45be 126e 573e
00000040: 0b11 aebd f767 73bd 3767 dfbd 6979 15bd
00000050: 404f f0bd c16c c83c 8c43 9b3d 9a92 debd
00000060: 3ab2 c23d ce17 f23c 031a 1d3e 2414 6c3e
00000070: 793e c83d 2240 143e bbe1 0a3d 5021 4e3d
00000080: e6ff 983d e850 1bbc 0a56 8bbc 6c29 e2bd
00000090: 4e7e 653e 310a 0a3e 3005 393e c205 51be
000000a0: 4d51 093e 1648 9fbd 551d b43e 9c23 543e
000000b0: 4818 e63c c905 0bbd d8dd 9c3d 9dd0 003e
000000c0: 2390 2c3d 6b22 a7bd

fc3.weight f4 [10, 50]
0.0025673404 0.34483474 -0.26986426 0.1764959 -0.08963293 0.058342412 -0.4816168 0.1774126
-0.0042423382 0.08834342 -0.28740668 0.20543993 0.20769702 0.029251358 -0.17617103 0.34860477
0.11656905 0.14963344 -0.052504215 0.13214983 0.042070244 0.21551564 -0.45447782 -0.32427782
-0.07642649 -0.14219378 -0.05352661 0.16754279 -0.10135398 0.16064127 -0.08624349 -0.13506332
0.10522285 -0.07656239 0.35233298 0.12561578 0.09336724 0.109934926 0.3407923 0.14427924
-0.10872744 -0.54340565 0.14632733 -0.43407273 0.055990964 -0.24006501 0.12314644 0.28750122
0.07752827 0.09586399 0.053999368 -0.17296557 -0.081633456 -0.08407858 -0.03444574 0.13223688
0.0062232655 0.099108085 0.18337286 -0.035805847 -0.1185532 0.06348513 -0.02984603 -0.10040612
-0.13784263 0.11496297 0.030399203 0.14256656 -0.012195172 0.078026526 -0.14243174 0.07656403
0.16711597 0.01751564 -0.25394034 0.15884821 0.09662009 0.18482575 0.13182822 0.03230365
-0.016514322 -0.06690494 -0.071145415 0.060075846 -0.28122196 -0.019617587 -0.11394356 0.04248047
0.049659103 -0.04887036 -0.0062949657 -0.11031575 0.45616344 0.004645537 0.12046914 -0.021573214
-0.07542096 -0.04289604 -0.14002804 -0.0057854606 -0.14927155 -0.016893301 -0.049684253 -0.057297885
-0.09346537 -0.024759337 0.021014918 0.06266333 0.0907938 -0.030564953 -0.08226431 0.117684565
-0.10147506 -0.058185294 -0.124129094 -0.026397908 -0.027689062 0.07967494 -0.122715645 -0.053551737
-0.089363836 -0.07271716 0.0323979 -0.1424951 -0.028959805 0.045695607 0.0020469802 0.0798199
0.07828063 0.0332202 0.06924608 -0.1300915 -0.02981446 0.028597342 -0.13130352 -0.043328986
-0.04569045 0.10837639 -0.10147065 -0.08533797 0.04306504 -0.020145195 -0.14999464 -0.04116268
-0.06775786 0.12460301 0.10869911 0.011544618 -0.11543201 -0.05306933 0.035127368 -0.35942435
0.14219742 0.0012250915 -0.14950456 -0.054651566 0.17184915 -0.003876514 0.07923795 -0.009053358
-0.008591727 0.113749884 -0.022462562 0.06550745 0.14644933 -0.27175158 0.08892959 0.09273648
-0.021246355 -0.38948202 0.10803901 0.21893147 0.04324843 0.10642841 0.037736274 0.08611024
0.14685015 0.042129144 0.11873389 0.20302656 -0.041840155 0.1373729 0.028520318 -0.121406615
-0.011939946 -0.0034126416 0.10321636 0.117199115 -0.03669415 -0.22454101 -0.02198162 0.013540724
-0.08570556 0.1618834 -0.13217846 0.12015926 -0.016365077 0.047749102 -0.08306446 -0.02962431
-0.050697636 0.078590766 -0.13546216 -0.14532438 -0.18449964 0.07697682 -0.014227448 -0.06887118
0.059887666 0.022629088 -0.45227253 -0.19758858 0.012339302 0.06677457 0.08196867 0.05072014
0.058647677 -0.03505236 0.020016015 -0.09927463 -0.044787798 -0.23079795 -0.027928269 0.14934856
0.14195514 -0.10597669 -0.078342035 0.12993364 0.15564302 0.06253899 0.122872286 0.085785195
-0.030017074 0.05896497 -0.06257012 -0.0913109 0.020386377 -0.06256265 0.0082346015 -0.14102012
-0.11863713 -0.13594712 0.036863357 -0.0149439955 -0.12957776 0.12265971 0.05488279 -0.12976961
0.08640337 -0.11784885 0.07256175 -0.4169751 -0.07392461 -0.07335874 -0.14251989 -0.022301227
00000000: d340 283b 2e8e b03e a62b 8abe 57bb 343e
00000010: 7891 b7bd 74f8 6e3d 7a96 f6be a6ab 353e
00000020: 5003 8bbb 65ed b43d f826 93be d85e 523e
00000030: 87ae 543e 8ba0 ef3c 2e66 34be 537c b23e
00000040: c1bb ee3d 8239 193e a90e 57bd 4952 073e
00000050: d951 2c3d 22b0 5c3e 51b1 e8be be07 a6be
00000060: 7e85 9cbd 3f9b 11be b83e 5bbd 5690 2b3e
00000070: ad92 cfbd 257f 243e 6da0 b0bd 0a4e 0abe
00000080: 147f d73d becc 9cbd fd64 b43e 6ca1 003e
00000090: 5337 bf3d 9025 e13d 547c ae3e f0bd 133e
000000a0: 7eac debd a21c 0bbf d5d6 153e c83e debe
000000b0: c856 653d 9ad3 75be 3334 fc3d 5c33 933e
000000c0: 24c7 9e3d 5754 c43d 712e 5d3d e31d 31be
000000d0: 712f a7bd 6431 acbd fa16 0dbd 1b69 073e
000000e0: 89ec cb3b 2ef9 ca3d 18c6 3b3e 27a9 12bd
000000f0: 05cc f2bd 7e04 823d a97f f4bc b9a1 cdbd
00000100: 9e26 0dbe b571 eb3d c007 f93c f8fc 113e
00000110: 42ce 47bc 5fcc 9f3d a0d9 11be 9acd 9c3d
00000120: 7320 2b3e f67c 8f3c 7804 82be 1ba9 223e
00000130: c1e0 c53d f642 3d3e fafd 063e d550 043d
00000140: 0b49 87bc 7505 89bd b0b4 91bd 1712 763d
00000150: 53fc 8fbe 10b5 a0bc 3e5b e9bd 0000 2e3d
00000160: 5867 4b3d 492c 48bd 0046 cebb 39ed e1bd
00000170: 418e e93e 9739 983b 86b8 f63d 4fba b0bc
00000180: 4e76 9abd c2b3 2fbd 8363 0fbe f693 bdbb
00000190: a4da 18be d263 8abc b781 4bbd 30b1 6abd
000001a0: c66a bfbd 18d4 cabc 7a27 ac3c a255 803d
000001b0: 1af2 b93d 5a63 fabc 317a a8bd 9b04 f13d
000001c0: 28d2 cfbd b453 6ebd 6537 febd 6d40 d8bc
000001d0: 2cd4 e2bc 9d2c a33d 5752 fbbd 1159 5bbd
000001e0: 6304 b7bd bcec 94bd a9b3 043d 3cea 11be
000001f0: 1d3d edbc 512b 3b3d a126 063b 9e78 a33d
00000200: 9851 a03d e811 083d e4d0 8d3d b536 05be
00000210: 743d f4bc f944 ea3c 6e74 06be bc79 31bd
00000220: e925 3bbd 71f4 dd3d d8cf cfbd acc5 aebd
00000230: f864 303d 8907 a5bc 3298 19be 339a 28bd
00000240: a2c4 8abd dd2f ff3d a49d de3d a325 3d3c
00000250: 9e67 ecbd 3a5f 59bd b7e1 0f3d 7806 b8be
00000260: 339c 113e 4093 a03a b917 19be 52da 5fbd
00000270: 39f9 2f3e 1d0d 7ebb 8247 a23d 8954 14bc
00000280: 51c4 0cbc b3f5 e83d 6803 b8bc c528 863d
00000290: d0f6 153e 0623 8bbe b820 b63d a0ec bd3d
000002a0: d60c aebc 306a c7be 8e43 dd3d 922f 603e
000002b0: 4425 313d 23f7 d93d 5a91 1a3d 915a b03d
000002c0: e35f 163e 9c8f 2c3d c12a f33d 32e6 4f3e
000002d0: 9560 2bbd 7bab 0c3e 71a3 e93c 08a4 f8bd
000002e0: c39f 43bc a0a6 5fbb 1963 d33d 1706 f03d
000002f0: 9b4c 16bd 14ee 65be cc12 b4bc ead9 5d3c
00000300: 6686 afbd c3c4 253e ca59 07be 0f16 f63d
00000310: 0e10 86bc 9094 433d b31d aabd aeae f2bc
00000320: 53a8 4fbd 32f4 a03d 98b6 0abe eacf 14be
00000330: 79ed 3cbe 06a6 9d3d 3e1a 69bc 550c 8dbd
00000340: c54c 753d a360 b93c 4490 e7be a954 4abe
00000350: c92a 4a3c 1bc1 883d 31df a73d ecbf 4f3d
00000360: 8c38 703d 1093 0fbd a0f8 a33c 7f50 cbbd
00000370: 6973 37bd 4c56 6cbe d3c9 e4bc d4ee 183e
00000380: b05c 113e 4f0a d9bd ca71 a0bd 530d 053e
00000390: e260 1f3e 7114 803d 77a4 fb3d 26b0 af3d
000003a0: 5ee6 f5bc 4185 713d c324 80bd 3601 bbbd
000003b0: 5501 a73c d920 80bd 6cea 063c 9467 10be
000003c0: 06f8 f2bd b935 0bbe 08fe 163d a9d7 74bc
000003d0: 08b0 04be 0435 fb3d c7cc 603d 53e2 04be
000003e0: 40f4 b03d bd5a f1bd 419b 943d c37d d5be
000003f0: c965 97bd 1b3d 96bd bcf0 11be 10b1 b6bc

fc3.bias f4 [10]
0.23860224 0.0370893 0.12260787 -0.11195592 0.115795426 0.09184666 0.036418606 0.070035376
-0.09132869 0.07956538
00000000: 2554 743e f3ea 173d d619 fb3d 2549 e5bd
00000010: 2726 ed3d 1a1a bc3d ad2b 153d b56e 8f3d
00000020: 890a bbbd 2df3 a23d

fc4.weight f4 [10, 10]
-0.25019372 0.13277116 -0.04411504 0.28126797 -0.20803738 0.22845714 0.12915218 0.3887152
0.056572005 0.25135064 0.058498356 -0.034443878 0.078979425 0.10288181 0.263496 0.25662476
-0.18985917 0.21913594 -0.20242299 0.2774911 0.3846464 0.26810834 0.22615464 -0.35107324
0.16107802 0.07208882 -0.13453163 0.33382675 0.25647166 -0.67722195 0.33415008 -0.23285867
0.20010789 0.19196332 -0.1973609 0.3203094 0.13825643 -0.16915016 -0.14739339 -0.16794686
-0.19538866 0.13274647 -0.13183375 -0.16478561 -0.2520156 0.28011402 0.16283165 -0.20744486
-0.18926048 0.02890388 0.19959469 -0.10860809 -0.06371726 -0.25165716 -0.112944245 0.19468488
0.22736841 -0.014632353 0.19227794 -0.043194603 -0.06365639 -0.22849596 0.12709954 -0.31523263
0.16079187 0.29177022 0.1399671 -0.23643649 0.1001879 0.1328834 0.03949157 -0.9723231
-0.04406053 0.15093283 0.12993743 0.285927 -0.19839552 -0.49531382 0.02177479 0.32129455
0.3195729 0.17111556 0.18385006 0.046565384 0.31706554 0.2221213 0.19363004 -0.19450025
0.31867757 -0.2670018 -0.018323094 0.05575204 0.063622534 -0.2323969 0.13500175 0.28417784
-0.09906121 -0.037353013 -0.019060552 0.288748
00000000: 6419 80be 2af5 073e f9b1 34bd 5b02 903e
00000010: c007 55be abf0 693e 7840 043e ae05 c73e
00000020: 0cb8 673d 08b1 803e f99b 6f3d 0615 0dbd
00000030: f7bf a13d b3b3 d23d f3e8 863e 5264 833e
00000040: 716a 42be 2c65 603e f947 4fbe 5013 8e3e
00000050: 5ff0 c43e 7f45 893e 1595 673e dfbf b3be
00000060: a3f1 243e 4ea3 933d a9c2 09be 57eb aa3e
00000070: 4150 833e 6b5e 2dbf b815 ab3e 8172 6ebe
00000080: 15e9 4c3e 0892 443e fa18 4abe 98ff a33e
00000090: 1893 0d3e b335 2dbe 4bee 16be 43fa 2bbe
000000a0: f713 48be b1ee 073e 6dff 06be 8fbd 28be
000000b0: 3008 81be 1b6b 8f3e 57bd 263e 6d6c 54be
000000c0: 80cd 41be d4c7 ec3c 8d62 4c3e eb6d debd
000000d0: 327e 82bd 35d9 80be 504f e7bd 795b 473e
000000e0: 44d3 683e 89bc 6fbc 82e4 443e d3ec 30bd
000000f0: 485e 82bd d8fa 69be 6226 023e 2c66 a1be
00000100: a0a6 243e e862 953e 8953 0f3e 681c 72be
00000110: 502f cd3d 9612 083e eac1 213d 2bea 78bf
00000120: d078 34bd 238e 1a3e 510e 053e 0665 923e
00000130: 3228 4bbe c699 fdbe 0b61 b23c b880 a43e
00000140: 0f9f a33e eb38 2f3e 3143 3c3e 58bb 3e3d
00000150: 6a56 a23e c473 633e f446 463e 132b 47be
00000160: b529 a33e 76b4 88be 501a 96bc 405c 643d
00000170: 884c 823d 74f9 6dbe e63d 0a3e c27f 913e
00000180: 9be0 cabd 79ff 18bd e024 9cbc c7d6 933e

fc4.bias f4 [10]
0.30678824 0.21401909 0.20212084 -0.14903623 0.09601839 0.11539587 -0.12495741 -0.008279791
0.25620526 -0.27945808
00000000: 5913 9d3e d227 5b3e c4f8 4e3e f49c 18be
00000010: 4aa5 c43d ab54 ec3d ace9 ffbd f6a7 07bc
00000020: 562d 833e 2115 8fbe

out_x.weight f4 [2, 10]
0.04083587 -0.09703616 1.1286103 -0.2942452 0.050340146 0.22735818 0.07893518 0.12186871
0.1630447 0.19900157 -0.066954955 -0.29512843 0.3974055 0.58705515 0.22517404 -0.15776603
0.15270792 0.66034657 -0.14682604 0.23506838
00000000: 8343 273d e5ba c6bd 4d76 903f 4fa7 96be
00000010: 7831 4e3d 95d0 683e c5a8 a13d 4d96 f93d
00000020: 31f5 263e 11c7 4b3e ae1f 89bd 131b 97be
00000030: bc78 cb3e 3f49 163f 0694 663e 6b8d 21be
00000040: 775f 1c3e 790c 293f 9159 16be c4b5 703e

out_x.bias f4 [2]
-0.39530954 0.009213224
00000000: 0366 cabe 10f3 163c

out_y.weight f4 [2, 10]
0.06349269 0.24214058 -0.27836877 -0.18347093 0.09044677 0.051129 0.07299699 0.042929642
-0.45043552 -0.08634382 -0.30447227 -0.03839411 0.23328964 0.4765757 0.07037069 0.28820014
0.01009224 -0.23168851 -0.07293969 -0.16650061
00000000: 7508 823d b3f3 773e 5a86 8ebe cedf 3bbe
00000010: 283c b93d a46c 513d 727f 953d fed6 2f3d
00000020: 7c9f e6be 07d5 b0bd cae3 9bbe 2443 1dbd
00000030: 7be3 6e3e bb01 f43e 821e 903d f88e 933e
00000040: ec59 253c c13f 6dbe 6761 95bd 237f 2abe

out_y.bias f4 [2]
0.06296964 -0.22955334
00000000: 3af6 803d 0810 6bbe

out_theta.weight f4 [1, 10]
-0.1566925 0.16498595 0.0042371484 0.17520183 -0.07451253 -0.34625375 -0.06491532 -0.049428772
-0.07030048 -0.18522802
00000000: 0074 20be 14f2 283e c7d7 8a3b 1c68 333e
00000010: 069a 98bd 2c48 b1be 53f2 84bd d375 4abd
00000020: b3f9 8fbd 6aac 3dbe
